param/pnet.pt (torch_old, 30012 bytes, 11 tensors)

pre_layer.0.weight f4 [10, 3, 3, 3]
000000 fd 25 75 3e b9 cc b2 bd 16 b7 df bd 42 73 7b 3e
       0.23940273 -0.08730454 -0.10923593 0.24555686
000010 63 21 0a 3d e0 e4 b9 be e9 a2 12 be e0 30 9a bc
       0.033723246 -0.3630743 -0.14319958 -0.018822134
000020 48 e7 e5 bd 87 bc b2 bd 49 ef 83 bc 32 cf c3 bd
       -0.11225754 -0.08727365 -0.016105311 -0.09561004
000030 bd 6d 21 3e 4b a3 1f 3e f0 62 46 be 25 9b db 3b
       0.15764518 0.15589635 -0.19373679 0.0067018443
000040 16 6e d1 3d 34 c4 a2 3d cd 1b 05 3e 93 92 ab bc
       0.10226075 0.07947579 0.12998886 -0.020943915
000050 ad a8 5b be d9 46 79 3e 9e 2f 0e 3e 33 3e 85 be
       -0.21451063 0.24343432 0.13885352 -0.26024017
000060 eb 7f f9 3c b7 05 3b 3e 05 5f 2f be 86 15 f0 bb
       0.030456504 0.18263899 -0.17126091 -0.0073267845
000070 4c f5 41 3e d1 8d ac 3e 48 0a 98 3d bb dd 8b bc
       0.1894123 0.33701947 0.07423836 -0.017073503
000080 17 51 bf bc 23 4b d7 bd de f5 1a be e5 88 7c bd
       -0.023354096 -0.10512378 -0.15132853 -0.06165399
000090 c6 da 58 3d de 92 00 bd 3c d9 a0 3d d8 fe b7 3c
       0.052943014 -0.031390063 0.07853934 0.022460386
0000a0 f2 fb f0 3d d8 29 96 be 90 05 b5 bd 01 1d dd bd
       0.11766805 -0.293288 -0.088389516 -0.10796548
0000b0 d5 fb 90 be 48 38 ed 3d 18 83 88 3e e9 fc 6e 3e
       -0.28317133 0.115830004 0.26662517 0.23338665
0000c0 4a cf 5e bd f9 dd 34 3d 96 01 7c be ab 47 07 3e
       -0.054396905 0.044157002 -0.2460998 0.13210933
0000d0 20 61 04 3e 6b 27 b0 be d4 c4 cb be b8 f6 cc 3d
       0.12927675 -0.34405074 -0.39798605 0.10007995
0000e0 82 8b 92 3e 9f 7a 1f be 59 0c 7d bd 62 3c 87 bd
       0.2862206 -0.1557412 -0.061779354 -0.06603314
0000f0 83 9b ab bc e8 c2 9d be 76 54 46 be 72 09 bd bd
       -0.020948177 -0.30812764 -0.19368157 -0.09230317
000100 b7 a9 97 3d 0f 2a 5b 3e 93 ae ca bd 43 64 34 bd
       0.074054174 0.21402763 -0.09896579 -0.04404093
000110 03 f4 2c be dc 95 88 3e de 9d 5f bd 36 e5 95 be
       -0.16889958 0.26676834 -0.054593913 -0.29276437
000120 32 e1 b8 be 83 b9 f9 3d d5 d3 ba 3e 76 c3 10 3e
       -0.3610931 0.12193587 0.3648974 0.14137062
000130 94 8c 31 3e d8 d6 a1 bd f1 40 55 3d ce 1e 8c 3d
       0.17338783 -0.07902306 0.052063886 0.06841813
000140 07 10 2a be fe 00 12 be ed d0 88 be 67 0e d9 bd
       -0.16607676 -0.14258191 -0.26721898 -0.1059845
000150 b0 ee e1 3d f0 07 b5 3e 1c e8 89 3e 05 22 51 be
       0.11031854 0.35357618 0.26934898 -0.20423134
000160 57 e1 2f 3e fc 82 3c 3d f5 22 43 3d 62 ea 99 be
       0.17175804 0.046023354 0.04764076 -0.30061632
000170 12 ea 98 bd 7d d1 13 3e 49 d7 80 3e 89 46 3c 3e
       -0.0746652 0.14435382 0.2516425 0.18386282
000180 7d 88 8a be 56 b4 c1 bd d1 47 71 be 65 be eb bd
       -0.27057257 -0.094582245 -0.23562552 -0.11510924
000190 0b ad 95 be 21 f6 8f bd 37 c0 f1 3b 31 dd 94 3e
       -0.29233584 -0.07029367 0.00737765 0.29075006
0001a0 19 3b 8f 3e 8b 84 b8 bb ca 5e f2 3d 85 73 83 be
       0.27974775 -0.0056310347 0.11834486 -0.25674072
0001b0 e3 6f 78 be 9f fb 87 bd 85 cd ed bd 57 1b f3 bd
       -0.24261431 -0.0663979 -0.11611465 -0.11870449
0001c0 0e e3 17 bd 54 29 01 be cd 98 49 be 87 bd 9d bd
       -0.03708177 -0.12613422 -0.19687195 -0.07702165
0001d0 bf ed 16 be 1f 78 69 3e 33 57 2d 3e c8 05 28 3e
       -0.1473913 0.22799729 0.16927795 0.16408455
0001e0 70 e4 4f 3e 49 db 5e 3d d7 78 10 3e 73 82 84 3e
       0.20301986 0.054408345 0.14108597 0.25880775
0001f0 69 3a 7f 3e 1f 29 24 3e 6d b4 89 3d aa 44 a7 3c
       0.24924625 0.16031311 0.067238666 0.020418484
000200 41 9d 58 3c 4f ae e2 3c 1a 45 58 bd 83 81 ae 3d
       0.013221086 0.027671007 -0.052800275 0.08520796
000210 3d 33 16 bd 7e 45 dd 3d 51 8b bb 3d 46 36 81 be
       -0.03666996 0.1080427 0.09157432 -0.2523672
000220 8e b1 bc be bd 5f 92 be 4c 6b 23 3e b4 7a 4d be
       -0.36854213 -0.28588668 0.159589 -0.20066339
000230 b2 e2 7f be 45 07 72 be 19 b6 9b be 46 d1 ea 3d
       -0.24988821 -0.23635586 -0.30412367 0.11465697
000240 72 3f d7 bc c7 a1 24 3e 5f 15 e0 3d 49 e0 13 3e
       -0.02627537 0.16077338 0.10941576 0.14441027
000250 a9 81 0f 3e d8 92 4f 3e 9f f7 2a be 95 92 96 bd
       0.14014305 0.2027086 -0.16696022 -0.07352177
000260 c0 55 8c 3e c0 7c 8f bd f7 d3 16 bd 51 8c 8f bd
       0.27409172 -0.07006216 -0.03682324 -0.07009185
000270 90 cb e0 3d d4 13 23 be 0d 67 10 be fe d3 47 bd
       0.109763265 -0.15925533 -0.14101811 -0.048786156
000280 8a 4c 42 be 2b 8c 16 bd 05 24 0c 3d 93 03 2e bd
       -0.1897451 -0.03675477 0.03421404 -0.042483877
000290 51 7d 6b be e8 b6 0e 3e eb 76 70 3e 49 64 21 3e
       -0.22997023 0.1393696 0.23482864 0.15760912
0002a0 39 e1 4c 3e 1d 04 26 3e e9 1a 9a 3e 05 b5 37 bb
       0.2000779 0.16212507 0.30098656 -0.002803148
0002b0 da 00 0d be eb 70 66 be 24 6e 84 bb 31 9a 36 3e
       -0.13769856 -0.22504012 -0.00404145 0.17832257
0002c0 d9 45 a7 be 76 92 5e be f7 db 24 3c b5 5b 10 3e
       -0.32670477 -0.21735558 0.010062209 0.14097483
0002d0 93 ea 31 be bd 66 e0 3d d4 45 b6 be d0 ec 55 bd
       -0.17374639 0.10957096 -0.3560015 -0.052227795
0002e0 83 e2 21 bd 2e 68 a7 3d 36 06 64 3d a7 0d 90 3c
       -0.03952266 0.081741676 0.055669986 0.017584635
0002f0 59 00 d4 3d 54 0d 57 3c ad 90 86 bd 52 50 c1 3d
       0.10351629 0.013125736 -0.065705635 0.09439148
000300 d2 ba 3c 3e f9 85 ee bd 44 d4 54 3e c4 9b 2b be
       0.18430641 -0.11646647 0.20784098 -0.16758639
000310 74 0e 41 be c7 ee 9a 3d 35 b3 32 3e a0 81 3a 3e
       -0.1885317 0.075650744 0.17451175 0.1821351
000320 40 e7 c1 3d e5 79 b1 bd 19 a5 66 bd 94 86 91 3e
       0.094679356 -0.08665828 -0.056309793 0.28422987
000330 48 48 7d be 8e a6 ab be dc 45 85 bd d3 94 d7 bd
       -0.24734604 -0.3352551 -0.06507465 -0.10526433
000340 e6 0e 47 3e 83 79 cf bd 7a 34 16 3e a0 99 16 3e
       0.19439277 -0.101305984 0.14668456 0.14707041
000350 bf 35 51 3e 0d 87 9e be 36 36 b2 be 95 de 0f 3e
       0.20430659 -0.3096241 -0.34806985 0.14049752
000360 0b cd 14 be ad c2 a0 3d 1f 6f ca bd 29 01 2e 3d
       -0.14531343 0.078496315 -0.09884476 0.042481575
000370 56 84 78 3e f4 f7 18 3d 25 7a 67 bd 70 ea 2a 3e
       0.24269232 0.03734584 -0.05651297 0.16690993
000380 14 08 6b be 4c f8 35 bd bc 47 97 bd 40 f9 e4 bd
       -0.229523 -0.044426247 -0.07386729 -0.11180353
000390 8e 8e 23 bc 45 16 0d 3e 7b 0e 26 be 6e 5b fe 3c
       -0.009982718 0.13778026 -0.16216461 0.031049456
0003a0 b3 eb d2 3d 58 17 90 be b2 a3 be bd f2 3b 4c 3e
       0.10298862 -0.2814281 -0.09308566 0.19944742
0003b0 78 5e 69 be ba 53 41 be d4 06 90 3e d3 75 82 3c
       -0.22789943 -0.18879595 0.2813021 0.015925324
0003c0 98 8a cc 3d af 5a 34 3d 4e c8 94 be 2f a9 1e bc
       0.09987372 0.044031795 -0.2905907 -0.009683891
0003d0 56 e5 84 3e dc 44 d2 bb ad 64 bf bc b8 83 8d 3e
       0.2595622 -0.0064169 -0.023363436 0.27639556
0003e0 1f ff 96 3e 98 8f be bd f4 58 c4 3d 42 93 77 3c
       0.29491517 -0.09304732 0.09587279 0.015110793
0003f0 64 a8 34 be af 8b 64 be 8c 0d ca bc 48 96 35 be
       -0.17642361 -0.2231891 -0.024664663 -0.17733109

pre_layer.0.bias f4 [10]
000000 92 39 6c 3c 4f 53 c1 bd 38 27 95 3d 16 51 50 bc
       0.014418023 -0.09439718 0.07282871 -0.012714645
000010 66 56 03 be 2c 7c 1c 3e ce 01 2c be df dd 25 bd
       -0.12825927 0.15281743 -0.16797563 -0.040494796
000020 7a 29 1b 3d 13 6c 34 3e
       0.037881352 0.17619352

pre_layer.3.weight f4 [16, 10, 3, 3]
000000 ae a0 d5 bd 0d b2 e4 bd c7 ef 93 be 6d 8a 2c bd
       -0.10431038 -0.11166773 -0.28893873 -0.0421242
000010 a6 04 c5 3d bf 2b 0e be 12 9f 0b 3d 18 42 80 3d
       0.09620027 -0.13883875 0.03408725 0.062626064
000020 84 5a 34 3e 7d 15 28 bc 7c 9c 25 3e 1e b2 1f 3d
       0.17612654 -0.010259029 0.16172975 0.038988225
000030 17 19 06 be 70 1c 94 3d 16 5d 96 bb d9 66 d6 bc
       -0.13095509 0.072319865 -0.0045887334 -0.026172088
000040 f6 c3 6b 3d 21 e7 85 3d c6 63 d2 3c 9a 43 77 3c
       0.05755993 0.06538225 0.025682341 0.015091801
000050 48 f0 b8 3d c5 c8 bc 3b ea c0 8e ba 88 f7 f6 3d
       0.09030205 0.0057612383 -0.0010891233 0.120589316
000060 da c4 96 3e d3 8e ef 3d da 78 d3 3d 8e 56 08 3e
       0.2944706 0.116971634 0.10325785 0.13314268
000070 3f 7b 2d 3e c0 ac 04 3e 85 eb af 3d f4 ba 7f 3e
       0.16941546 0.12956524 0.08589844 0.2497366
000080 57 ec b7 3e 50 9e 07 3d a6 f4 60 3d 2b 7c 67 3e
       0.359225 0.033109963 0.054920815 0.2260596
000090 5b 49 ba bd ce 5e c7 bd 24 2c 90 bd e1 f7 bc 3d
       -0.09096023 -0.097348794 -0.07039669 0.09226967
0000a0 b4 10 a6 3c 67 9c 18 be a9 31 ef 3d 03 a4 de 3d
       0.020271637 -0.14903413 0.11679394 0.108711265
0000b0 c1 04 bf bd 97 c9 45 3e 94 06 53 3e 6d 31 32 3e
       -0.093270786 0.19315182 0.20607978 0.17401667
0000c0 54 f0 09 3e 8e 0c 09 3d 14 9d 63 3e 08 c0 17 3e
       0.13470584 0.03345924 0.2222789 0.14819348
0000d0 2b 32 b6 3d 06 e7 1d 3e 8a 6f 6c bd 4f 9e 0a be
       0.088962875 0.1542016 -0.05772356 -0.13536952
0000e0 32 3b 23 bc a8 76 66 bd dd a8 90 bd 73 c2 8d be
       -0.009962844 -0.056265503 -0.07063458 -0.27687415
0000f0 9f 9a 2b be 73 b6 7f 3d 6c 05 84 be 95 0c 2d bd
       -0.16758202 0.062429857 -0.25785387 -0.042248327
000100 e7 99 6d 3b c7 49 e1 3d 99 16 13 bd 3b 69 86 bd
       0.0036255063 0.110004 -0.035910223 -0.0656304
000110 ac 86 32 bd 78 a5 ef 3d 60 4b c5 3d 00 19 39 3c
       -0.043585464 0.117014825 0.09633517 0.011297464
000120 fe 3f df 3d e9 ea 91 3d 6d e7 2a 3d 86 ae 93 bd
       0.109008774 0.07124884 0.04172461 -0.07211022
000130 bf b8 18 bd 98 ca e2 3c e2 71 1c be b6 a0 02 bd
       -0.037285563 0.027684495 -0.15277818 -0.031891547
000140 a2 48 80 3d 05 d5 f6 be bd ba 6a be 82 4e 8d bd
       0.062638536 -0.48209396 -0.22922798 -0.0689974
000150 80 28 3e bf a5 fc 88 be b2 ce 7d be e4 44 00 bf
       -0.7428055 -0.26755252 -0.24785879 -0.5010512
000160 6f 71 9c be 40 1a 3e be 32 8c 0c be c3 49 b9 be
       -0.30555293 -0.18564701 -0.13725355 -0.36189088
000170 e6 d8 fb 3d 75 37 1f be bd bf d0 3d af 97 3b bc
       0.122972295 -0.15548499 0.10192821 -0.011449738
000180 05 f7 98 be 00 34 5d 3d d7 23 9f 3d b6 29 13 3e
       -0.2987596 0.05400467 0.07770508 0.1437138
000190 3f bb 08 bc c4 80 88 be e1 11 91 3e 27 22 0a 3c
       -0.008345424 -0.2666074 0.28333953 0.008430994
0001a0 0a ac 99 be 31 a1 44 3e c5 a2 2d bd 91 3a 10 be
       -0.30014068 0.19202115 -0.042391557 -0.14084841
0001b0 c3 37 39 3e cb 10 98 3d 29 c9 ab 3e 8a 91 f5 3c
       0.18087678 0.07425078 0.3355191 0.029976625
0001c0 37 fe 1d be e9 31 88 bc 8a 16 49 be a8 bc bd be
       -0.15429007 -0.016625362 -0.19637504 -0.37057996
0001d0 4c f2 33 be a8 37 19 bb fd a4 9f bd 6c 7d b1 3d
       -0.17572898 -0.002337912 -0.07795141 0.086665004
0001e0 79 e7 e9 3e c4 33 30 be 72 ea 23 bf a1 06 0d 3e
       0.45684412 -0.17207247 -0.6402961 0.1377206
0001f0 df d8 9a be 2f 67 93 be 1e 0a 1e 3e 69 11 0e 3e
       -0.30243585 -0.2878966 0.15433547 0.13873829
000200 cf c2 46 3e aa 3f 7b bd 12 01 ab 3d 7d 5e 9b 3d
       0.19410251 -0.06134001 0.083498135 0.075863816
000210 e0 a0 3e be a4 87 d9 bd b8 6e 4a be d5 d6 83 3e
       -0.18616056 -0.106215745 -0.19768798 0.2574984
000220 97 0d e5 3c 1d c9 48 3e d0 32 2f be 76 37 1f bc
       0.027960582 0.19607969 -0.17109227 -0.009717813
000230 2f e2 14 3e e5 1e 51 be ff 5d 8f 3d 4f 7e 53 3d
       0.14539407 -0.20421942 0.0700035 0.05163413
000240 26 ed 83 3d e7 07 1c bd ad df 45 3d ee 4a b6 3d
       0.06441717 -0.038093474 0.048309017 0.089010105
000250 d7 3b 03 3d 48 9b 7e be 47 48 11 3e 07 dd 9b bb
       0.03203949 -0.24863923 0.14187728 -0.004756573
000260 c8 8e 06 bc 60 e5 a1 bc b3 8a 5f 3e 37 d7 8f 3e
       -0.008212753 -0.019762695 0.21830253 0.28093883
000270 15 9f 0e bd fc ef c7 3d eb 8e 77 bd ac fc 43 be
       -0.03481968 0.0976257 -0.06043903 -0.19139355
000280 a8 0b 9c bd b5 76 99 bd 9a 09 46 bd 24 c3 76 be
       -0.07619411 -0.07493345 -0.048349 -0.24097878
000290 68 06 81 be f7 0f cf bd 8e f3 e0 3d 81 b3 4a 3c
       -0.252002 -0.10110467 0.10983954 0.012371899
0002a0 d8 cb 15 3d e9 31 63 3e 84 be 88 3d 84 be 74 3e
       0.036571354 0.22187008 0.06676963 0.23900801
0002b0 3e 89 cf 3d e6 9a fb 3d 4c 00 f3 bd 9b 0b dd 3c
       0.10133599 0.12285404 -0.11865291 0.026983073
0002c0 b4 cd d7 3d 6f 58 b8 be 2e fc 51 be 63 fe 56 3e
       0.10537282 -0.3600497 -0.20506355 0.20995478
0002d0 38 1b 27 be 1c 3e bd be b3 64 a8 be b5 98 43 be
       -0.16318977 -0.36961448 -0.32889327 -0.19101222
0002e0 8b 44 1a 3d 15 6e d8 3d 96 37 dc 3d e2 e4 96 3e
       0.037663024 0.105678715 0.1075279 0.294715
0002f0 cb 97 0f 3d 2c b4 7e be 9c 16 de be 13 9e 41 3e
       0.03505687 -0.24873418 -0.43376625 0.18907957
000300 63 b9 35 bd da 68 67 bd cf 52 4f 3e d9 4a 4d 3e
       -0.04436625 -0.05649648 0.20246433 0.20048083
000310 a8 30 be 3d 26 29 88 3e b4 e7 f6 3d db 1f 68 be
       0.09286624 0.26593894 0.120559126 -0.22668402
000320 5e 09 90 be af 1d 92 3d 53 f8 c2 bd fb bc 73 bd
       -0.28132147 0.07134568 -0.0952002 -0.059506398
000330 42 a4 5e 3d 74 d5 39 bd f4 cf 82 3d c5 96 1b 3e
       0.054355867 -0.04536958 0.0638732 0.15194233
000340 ff 97 07 3e 7f f6 ff 3d e0 2a 24 3e df 78 5f be
       0.13241576 0.12498187 0.1603198 -0.21823452
000350 41 8b 91 be 51 bf 02 3e 92 bc 29 bf df 5c fa be
       -0.28426555 0.12768294 -0.6630336 -0.4889898
000360 6c ea 98 bd 2a c3 ee bd 18 07 a8 bc 13 42 95 bd
       -0.074665874 -0.11658318 -0.020511195 -0.07287993
000370 77 f1 ae 3c e2 9f 96 3b d5 a6 a3 3c 8f f2 a2 bc
       0.021355374 0.0045966962 0.019977013 -0.019891052
000380 c0 22 c8 3c 9c ea 31 bd 39 5e 85 be 5f 78 61 be
       0.024430633 -0.04343663 -0.2604845 -0.22018574
000390 b0 38 4f 3d 94 01 dc bd a2 8b bc bd ce e5 eb bb
       0.05059117 -0.107424885 -0.0920632 -0.0071990257
0003a0 9f 2f 73 3d 9d 8b 1e 3e 4b ad a9 3d ce fa cf 3d
       0.059371587 0.15482946 0.08285006 0.10155259
0003b0 70 ac ee 3c 19 0c 65 3d 59 52 20 be 55 56 eb bc
       0.029134959 0.05591974 -0.15656413 -0.02872769
0003c0 24 4e 62 be 4a b5 68 be 0c d4 47 be 44 f6 81 3d
       -0.22100121 -0.22725406 -0.19514483 0.063457996
0003d0 d4 4c a8 be b8 8f 01 bf 2e 7c d1 bd 30 df 0b be
       -0.32871115 -0.5060992 -0.102287635 -0.13659358
0003e0 84 1d 00 be 65 10 3a bd 44 4b 9b bd 35 ce 4a 3d
       -0.1251126 -0.04542579 -0.07582715 0.04951306
0003f0 82 5b 97 3c 0a d7 2f bc 24 7a 88 3d 0d 7c 94 3d
       0.018476252 -0.010732422 0.066639215 0.07250223

pre_layer.3.bias f4 [16]
000000 b5 9d 28 be 6c 48 56 3e fa 43 ca 3d bc 7f e1 bd
       -0.1646641 0.20926064 0.09876247 -0.110106915
000010 f3 66 41 3e 9c b6 b6 3e b4 9a 79 3e 56 30 1d 3b
       0.18886928 0.35686195 0.24375421 0.002398511
000020 f3 90 60 3e 51 41 cc 3d 0d 8f 89 be e5 34 9a 3e
       0.21930294 0.099733956 -0.26866952 0.3011848
000030 54 b3 47 3d 1e ae ca 3d 0e 4f e3 3a 63 32 b3 bd
       0.048755005 0.098964915 0.0017342286 -0.08749845

pre_layer.5.weight f4 [32, 16, 3, 3]
000000 b8 dc cf bd 15 f1 93 bd f8 79 d5 bb 05 34 dd bd
       -0.10149521 -0.07223717 -0.006514784 -0.108009376
000010 d8 3b 0d bd 48 2d 12 be e7 53 b0 bc 51 22 cb 3d
       -0.0344809 -0.14275086 -0.021524383 0.09918655
000020 3d 8a a3 bd 40 18 39 3d 56 8c 31 3d 51 97 7d 3d
       -0.07985351 0.045189142 0.043346725 0.061911885
000030 42 b6 5e 3e 55 2b a4 3d 61 6a c7 3d c1 56 25 3e
       0.21749213 0.080160774 0.09737087 0.16146375
000040 3a d1 0a 3e 12 7e 90 bd 87 92 a7 bd af 0c 86 3c
       0.13556376 -0.07055296 -0.08182245 0.01636347
000050 c9 e8 b1 3c 54 ae 8f 3e 62 88 62 3e 3a 3b c1 3d
       0.021717446 0.2806269 0.22122338 0.09435125
000060 90 35 a7 bd c3 c6 a9 3c 12 10 25 be 02 ef cf bd
       -0.08164513 0.02072466 -0.16119412 -0.10153009
000070 95 05 cd bd ee b7 1b be 08 d2 8d bd 2d a8 bc bd
       -0.1001083 -0.15206882 -0.06924826 -0.092117645
000080 80 f4 a4 3b a0 61 2e bd 74 28 e1 3d 11 5e f0 3d
       0.0050340295 -0.04257357 0.10994044 0.11736692
000090 fc e4 72 bb 43 0d 0f 3d b4 4e 19 3e db 8f c3 bc
       -0.0037062755 0.034924757 0.14971429 -0.023872307
0000a0 26 bd 65 bd 10 bc cf 3d 97 ed 20 3e 8e 27 65 3e
       -0.05608859 0.10143292 0.15715633 0.2237837
0000b0 85 b4 a8 3d 47 33 48 3e 6c ab 39 3e f4 7f 14 3e
       0.08237556 0.19550811 0.18131799 0.14501935
0000c0 17 c8 8a 3d fb b2 57 3c 8f 6c 8a 3d 7e d1 3d 3d
       0.06776445 0.013165231 0.06758987 0.046342365
0000d0 74 73 34 be 90 75 ba 3d d5 bd 85 3d 51 83 c2 bd
       -0.17622167 0.091044545 0.06530348 -0.09497703
0000e0 6a ba e8 3d ab f9 10 3e 5b 53 1d 3d 35 65 ad 3d
       0.11363681 0.14157741 0.038409572 0.08466569
0000f0 86 26 ec 3c 2d 7c 45 bc 61 12 13 3d 74 49 71 be
       0.028826963 -0.012053532 0.0359062 -0.23563176
000100 6c 95 5c be 77 a4 a7 3c 43 c0 17 3e 5c 98 47 bd
       -0.21541375 0.020464165 0.14819436 -0.048729286
000110 78 b7 7b 3c 88 6b da be 18 7c c5 be c4 2d fa be
       0.015363567 -0.42660165 -0.3857124 -0.4886304
000120 a4 e5 1a 3e 39 98 ec 3d 54 da f1 3d 9e 13 b5 bb
       0.15126663 0.11552472 0.11809221 -0.00552602
000130 db a2 1e 3d de 19 07 bd ff b6 f5 3c 65 1a 08 3e
       0.03872953 -0.032983653 0.029994486 0.13291319
000140 99 4e 9f 3d 1b 84 9f 3d 8e 77 12 be f4 8e 83 bb
       0.07778663 0.07788869 -0.14303419 -0.004014844
000150 f2 a3 43 3e 3d 52 a1 3d b1 08 15 3e 40 f3 8f be
       0.19105509 0.07877014 0.14554097 -0.28115273
000160 8b e7 97 be 81 94 b8 be 7d e5 7c be c8 ec dc bd
       -0.2966884 -0.360508 -0.24696918 -0.1078735
000170 d1 08 01 be 95 e8 f0 bd 48 16 a7 bd 80 5d 30 bd
       -0.1260102 -0.117631115 -0.08158547 -0.04305792
000180 c2 aa cb bd 4f b9 3a be a9 07 35 be 7c 5e 11 3c
       -0.09944679 -0.18234752 -0.17678703 0.0088726245
000190 bc 97 2b bd 18 77 6b 3c a7 b8 23 be 7f c3 b3 3d
       -0.041892752 0.014371656 -0.15988408 0.08777522
0001a0 6a 01 64 3c 84 74 0d bd 18 ae 7d 3e 60 1f 1f bd
       0.013916353 -0.034534946 0.24773443 -0.03884828
0001b0 19 0a 07 be 37 b6 29 be 68 b5 7e be b0 ff 0c be
       -0.13187446 -0.16573416 -0.24873888 -0.13769412
0001c0 15 f8 94 be f1 82 1b be 2c 08 c2 3e 77 71 b8 3e
       -0.29095522 -0.15186669 0.3789686 0.36024067
0001d0 b5 be dd 3e 16 33 83 3d 83 a6 b1 3b 38 c6 19 be
       0.4330956 0.06406228 0.005421461 -0.1501702
0001e0 01 b3 3d 3d 9f b8 57 bd 06 c5 c2 bd e2 68 ba bb
       0.04631329 -0.052666303 -0.095102355 -0.0056887725
0001f0 bd 67 ea bd 62 a0 47 bd f0 47 8d 3e 26 ce e9 3d
       -0.11445568 -0.048736937 0.27593946 0.11416273
000200 05 af 8e 3e d7 bf 92 3e c2 d4 85 3d 2a 5a d6 3e
       0.27867904 0.28661987 0.06534721 0.41865665
000210 af 7c e6 bd 01 81 ac be dc 40 e0 3c a7 05 6b bd
       -0.1125425 -0.33692172 0.027374677 -0.057378437
000220 a7 58 af bd c1 a9 93 bd f3 b1 7b bd 3b 45 0e 3e
       -0.08561831 -0.07210112 -0.061449002 0.13893597
000230 e1 40 f9 3d 62 7e 39 be 99 99 1a 3e 07 f0 77 3e
       0.12170578 -0.18114617 0.15097655 0.24212657
000240 97 c4 ff 3d 70 8d 24 be 61 ac 50 3d 34 08 b4 bc
       0.124886684 -0.16069579 0.050945643 -0.021976568
000250 0c 73 17 be 11 08 6e bd bb e1 19 bd 53 24 c6 bd
       -0.1478998 -0.05811316 -0.03756879 -0.09674897
000260 70 9c 36 bd f4 c1 94 3e 90 e0 c0 3e 41 6a 84 3b
       -0.044582784 0.29054224 0.37671328 0.0040409868
000270 e9 96 4d bc ba 2b d1 3d 67 04 56 be d2 fe 94 be
       -0.012548187 0.10213418 -0.20900117 -0.29100662
000280 c1 07 81 be b3 01 02 be bc c9 8d be 3f aa 8c bd
       -0.25201228 -0.1269596 -0.27692974 -0.06868409
000290 0e 1f d4 be 93 8c 37 be 7e a6 3a be 3a 9c fb bd
       -0.41429943 -0.17924719 -0.18227574 -0.12285657
0002a0 15 df bf bd e2 3c fb be e6 63 66 bd 58 d5 c9 bd
       -0.093687214 -0.49069887 -0.056247614 -0.09855145
0002b0 cf e1 4c bc 61 0d bb 3c 38 06 92 bd 4e 5b 70 bd
       -0.012505009 0.022833528 -0.071300924 -0.058680825
0002c0 a0 56 3f be cd c2 cf 3b 9c dc 85 bc 0e 9a c2 3b
       -0.18685389 0.0063403607 -0.016340546 0.005938775
0002d0 f6 79 fd 3d 48 f5 83 3e 1e 72 1a bf a3 4a 9c bd
       0.12376778 0.25773072 -0.6033038 -0.07631423
0002e0 0e 02 25 3e f1 5b af bd 7b 5c 18 be e3 13 03 3e
       0.16114065 -0.08562458 -0.14879028 0.12800555
0002f0 f3 d1 8f 3d 7d db 9d be 41 d6 b2 bd a0 38 0a bd
       0.070224665 -0.3083152 -0.08732272 -0.033745408
000300 f9 f1 93 3d 12 9b 93 3e a2 e2 99 3d 09 13 0f be
       0.07223887 0.28829247 0.0751393 -0.13972105
000310 4b b9 98 bd a1 8c c3 bd 77 85 1d be 7f 09 40 3e
       -0.07457217 -0.09548307 -0.15382944 0.18753622
000320 c5 a2 0a 3d 7d 8e b7 be 93 5e 18 bd 3c d6 e9 bd
       0.033846635 -0.35850897 -0.037199568 -0.11417815
000330 ff 0b 69 3e e1 18 85 3e a3 27 a4 3e 43 18 c4 bd
       0.22758482 0.25995544 0.3206149 -0.0957494
000340 8d b4 53 bc 88 de 87 be d2 00 18 3e ec c6 0e 3e
       -0.012921465 -0.26536965 0.14844063 0.1394307
000350 68 cf 5a 3d e7 08 84 3e 4c 72 d9 3d da 03 07 3e
       0.053420454 0.25788042 0.106175035 0.13185063
000360 6f f8 51 3e f5 14 49 be 53 fa 52 be 38 73 8b bd
       0.20504926 -0.196369 -0.20603304 -0.068090856
000370 47 ce e8 bd 99 03 8f bd 49 35 20 bd 26 27 96 be
       -0.11367469 -0.06983108 -0.039113317 -0.29326743
000380 10 81 f1 bc 43 8b ac be 60 0f 28 3e 2b 3b 1e 3e
       -0.029480487 -0.33699998 0.16412115 0.15452258
000390 55 f5 a9 3d c3 0c f1 3e db 48 f7 3d fe a6 62 3d
       0.082987465 0.4708005 0.12074443 0.055335037
0003a0 9a be eb 3c 02 42 97 bd 2a fa 54 3e fa dd 4c 3e
       0.02877741 -0.07385637 0.20798555 0.20006552
0003b0 cd 94 33 3e f1 04 0a 3e e3 39 03 3e 06 90 0e 3e
       0.17537232 0.13478447 0.12815051 0.13922128
0003c0 bf d4 73 3e 7c 59 90 3e 0e ba 58 3e 40 43 15 be
       0.23811625 0.2819327 0.21164724 -0.14576435
0003d0 2a 19 2f be fd 17 7a be d1 d2 67 3e 23 eb 28 be
       -0.17099443 -0.24423213 0.22639014 -0.16495948
0003e0 49 8c 06 be 2e 69 51 bd 61 3b 2e be fd 34 5f 3d
       -0.13139452 -0.051125698 -0.17014839 0.054493893
0003f0 f7 00 f8 3e 8e a6 c0 3e 63 78 4e 3e 1c 73 23 be
       0.48438236 0.3762707 0.20163111 -0.1596188

pre_layer.5.bias f4 [32]
000000 22 6a 34 3e eb 02 94 bd fb ef 54 3d a7 16 2f be
       0.17618611 -0.07227119 0.051986676 -0.17098485
000010 fb 55 1b 3d 35 48 bb 3d d7 44 24 3e 6d 08 2f 3d
       0.037923794 0.09144632 0.16041885 0.042732645
000020 49 b8 5a 3e 66 60 c8 3e fc 52 a0 3e 36 a7 ac 3e
       0.21359362 0.39136046 0.31313312 0.33721322
000030 92 41 f0 be 0f 33 5f bd b0 0c 84 bd ca d2 19 3e
       -0.46925026 -0.054492053 -0.064477324 0.15021816
000040 57 72 87 3d ca 27 b7 bd 30 68 3c 3e 6a 25 4b 3e
       0.066136055 -0.08943136 0.1839912 0.19838491
000050 fb db b6 3d 34 4f ea 3e 1e 7b 29 3e ce 96 55 be
       0.08928677 0.45763552 0.16550872 -0.20858309
000060 ce 20 76 3e 4d 53 54 bd dc 3f 2f 3e ed bd df be
       0.24035951 -0.051837254 0.17114204 -0.4369959
000070 be 35 52 3d 36 a3 02 3f 36 5d 9b 3d 39 0a 16 be
       0.051320784 0.5103029 0.07586138 -0.14652337

conv4_1.weight f4 [1, 32, 1, 1]
000000 ec 4b e4 be ca 17 51 3f b2 9c 00 bf fe 09 e0 3e
       -0.44589174 0.81676924 -0.502391 0.43757623
000010 c1 62 ea 3e df 5e 39 3f 5e 0b 1b 3f dd 09 e7 be
       0.45778468 0.72410387 0.6056422 -0.45124713
000020 07 3d bf be ea f2 15 3e d9 e6 a7 3e ec a4 89 3e
       -0.37351248 0.14643446 0.3279331 0.26883638
000030 73 cb 2c be 6b 3a 38 3f 33 4a 34 3f 46 5d b9 be
       -0.16874485 0.7196414 0.7042572 -0.36203974
000040 68 fc fb be eb 93 dd be d9 29 55 be 6d 30 16 be
       -0.49216008 -0.43276915 -0.20816745 -0.1466691
000050 f3 28 da 3e ce 63 58 3e 01 50 c8 be 26 02 00 3f
       0.42609367 0.21131822 -0.39123538 0.5000328
000060 fa b6 0a 3f 13 ce df be e8 66 9c be 8a 4c 6c 3e
       0.5418545 -0.4371191 -0.3054726 0.23076072
000070 59 c4 91 3f 23 ed a7 bc c3 2d 1b 3f a5 fc ca 3e
       1.1388046 -0.020498818 0.606167 0.39645877

conv4_2.weight f4 [4, 32, 1, 1]
000000 2b 82 5b bd dd f2 65 3b 78 e4 a2 ba ec 91 85 3d
       -0.053590935 0.0035087385 -0.0012427708 0.06521973
000010 5f 24 3d be de 73 01 bd 49 4d 5b bd 4a ad 99 bc
       -0.18470906 -0.03160464 -0.0535405 -0.018759388
000020 23 ef 36 3e 76 46 97 3d ae 24 90 bd 32 71 96 bd
       0.17864661 0.07386486 -0.07038246 -0.07345809
000030 4d 7d f6 bc c6 ba 9a 3c e8 be b6 bd 3f 93 32 3c
       -0.030089045 0.018887889 -0.08923131 0.010899364
000040 67 1d 94 bc db e2 23 3d 18 75 dd bc 17 d6 78 bc
       -0.018080426 0.040011268 -0.027033374 -0.015187762
000050 74 ee 79 3d 89 b2 af 3d cd 5c 55 bd a2 b6 a6 3d
       0.061018422 0.08578975 -0.052090455 0.08140303
000060 43 02 de 3d 56 ab 55 3d 1d f5 f4 bd 57 25 a7 bd
       0.10840275 0.05216535 -0.11960814 -0.08161419
000070 66 e2 3a bd 23 04 71 bd af 04 00 3e 43 43 bf bd
       -0.045626067 -0.058841836 0.12501787 -0.09339001
000080 6d bf 1c 3d 85 b2 a1 3d 06 9b 00 bd 15 1d 4c 3c
       0.038268495 0.07895378 -0.031397842 0.012458106
000090 05 dd 86 be 2c ea 01 be f7 32 56 3c e3 20 4b bd
       -0.263405 -0.12686986 0.013073674 -0.04959191
0000a0 ed 1a fc 3d ab e7 57 3d 5f ff 81 3d d0 54 8c 3d
       0.12309823 0.05271117 0.06347536 0.06852114
0000b0 20 f3 37 be fa 7b 05 be 3d 77 65 bd 85 c6 eb 3c
       -0.17963839 -0.13035575 -0.056021918 0.028781185
0000c0 8f a2 85 3d 64 20 a5 bc 0e ac 11 be e4 93 a2 3d
       0.06525146 -0.020157047 -0.1422579 0.07938364
0000d0 6e ef 90 3b 7b ae 08 be 3d 7d ef bd b5 b8 6f 3e
       0.0044230735 -0.13347809 -0.11693809 0.23410304
0000e0 9a 96 37 3d 77 7f 93 3d b9 ca 07 3d 4e 86 06 be
       0.04482136 0.07202046 0.033152316 -0.1313717
0000f0 ce 8c 04 3b 88 99 22 bd db 70 bf 3d 03 a8 1d be
       0.0020225528 -0.0396972 0.09347697 -0.15396123
000100 ce 0a 07 3e 70 be c5 bd 0c 4b 90 3d ec f1 18 3d
       0.13187715 -0.09655464 0.07045564 0.03734009
000110 3d ff c9 3d 49 36 29 bc 35 e4 08 bd 97 af 43 bd
       0.09863136 -0.010327884 -0.03342076 -0.047774877
000120 85 86 0e 3d 4e 3d 1c bc 73 37 82 3d 3a e2 64 bd
       0.034796257 -0.009536101 0.06358232 -0.05587981
000130 4b a3 69 3e e3 5a 0f 3e ac 17 d5 ba bb d9 33 bd
       0.22816198 0.13999514 -0.0016257665 -0.043908816
000140 5f 83 16 bc 19 fc 1c bb e0 ed 0f 3e 34 38 79 bd
       -0.009186595 -0.0023953973 0.14055586 -0.060844615
000150 3f ba 1e bd 81 ac 04 3d 61 e0 7a 3c 6a 5f 61 bd
       -0.038751837 0.032391075 0.015312285 -0.055022635
000160 ca a6 35 3d 57 c2 68 bc e4 53 c2 bd 90 ad f0 bd
       0.044348516 -0.0142064905 -0.09488657 -0.117518544
000170 00 09 65 bd ae aa 53 3c 46 c5 b6 3b 2f a9 b5 3d
       -0.055916786 0.012919111 0.005577716 0.0887016
000180 a2 10 93 3e 04 99 d7 bd 3c d4 8d 3d 40 84 a2 bc
       0.28723627 -0.10527232 0.06925246 -0.019838452
000190 f4 8f 1c 3e e5 a3 c3 bd 2a 8d 34 3d 3a 84 94 bd
       0.15289289 -0.09552745 0.044079937 -0.07251783
0001a0 10 df 14 bd 05 70 03 3e 25 b1 06 3e 19 25 9d bd
       -0.03634554 0.12835701 0.13153513 -0.076730914
0001b0 ac da a1 3d 09 62 30 3d 07 f1 7e 3d b7 11 af bc
       0.079030365 0.043062244 0.06224158 -0.021370752
0001c0 d4 f5 30 3d 36 74 9a bd 62 67 75 3d b7 a1 38 bd
       0.04320319 -0.07541697 0.059913047 -0.0450761
0001d0 76 12 56 bd 16 dc d9 3c 78 43 3f bd 53 52 d1 3c
       -0.0522637 0.026594203 -0.046695203 0.02555195
0001e0 59 42 0b 3d 11 9b 3e 3c 36 f9 31 3e c2 61 b2 bd
       0.03399882 0.01163365 0.17380223 -0.08710052
0001f0 e8 97 bc bd ac 2e bb 3d e5 70 8e bd 48 12 8c 3d
       -0.09208661 0.09139761 -0.06955127 0.06839424

conv4_2.bias f4 [4]
000000 18 56 a6 3d ce 63 03 3d c8 97 41 bd 3b 48 85 3d
       0.0812189 0.032077603 -0.04726389 0.065079175

conv4_3.weight f4 [10, 32, 1, 1]
000000 55 51 f9 3d 95 5d 20 be a1 d0 e2 bb 47 3a b6 be
       0.12173716 -0.15660699 -0.006921843 -0.35591337
000010 be f3 b1 bd d7 23 a4 bd 23 95 8e bd d3 7d f7 3c
       -0.08689068 -0.080146484 -0.06962039 0.030211365
000020 88 cd 5a 3e c4 9d a9 3e d4 44 53 3e 83 6e 9e 3e
       0.21367466 0.33128178 0.20631725 0.3094369
000030 97 86 c6 be e2 bc 58 be d1 d1 fd bd 32 10 aa bc
       -0.3877456 -0.21165803 -0.12393535 -0.020759676
000040 e1 37 90 bd c6 1d 2e be 8e a9 8f 3e 31 ca 94 3e
       -0.07041908 -0.17003545 0.28059047 0.2906051
000050 6a c9 11 3e 3e 5b b5 3e 16 9d e6 3d 1d 87 01 be
       0.1423699 0.35421175 0.112604305 -0.12649198
000060 f8 23 b4 3d 45 7b d1 bd 40 e4 52 3e 27 83 cd be
       0.08795923 -0.1022859 0.20594883 -0.40139124
000070 2d 88 6a bd f6 e9 00 3f 56 66 23 bd 1c c1 7f be
       -0.057258774 0.50356996 -0.039892517 -0.24976009
000080 b5 04 58 3c f4 0a 11 3c 35 0c b6 3c 22 b0 7a 3d
       0.013184716 0.008852709 0.022222618 0.06120313
000090 1a 62 d6 bd 45 55 0c bd 80 9a 21 bd e8 50 fc bc
       -0.1046793 -0.034261007 -0.039453983 -0.030800298
0000a0 52 59 fb 3d 8e 23 5c 3d 38 63 0e 3d 29 f6 3f 3c
       0.12272896 0.053744845 0.03476259 0.011716404
0000b0 ee 25 2f 3e 24 75 6c 3d 31 59 9f bd 64 3b 18 ba
       0.17104313 0.0577289 -0.07780684 -0.000580719
0000c0 f8 c1 b9 bc b8 db 31 3c 0a a5 0d 3d af e6 8a ba
       -0.0226755 0.010855608 0.03458122 -0.0010597314
0000d0 91 9e 3f 3d ae 23 5a bd ff 5f e2 bb 31 a8 d6 3c
       0.04678208 -0.053256683 -0.0069084163 0.026203247
0000e0 d1 94 6b 3d 86 9b 14 bb 9f bc 00 be 56 d5 db be
       0.05751497 -0.0022675707 -0.12571953 -0.429362
0000f0 5c 3b cb bc 79 f5 d5 bc 41 82 71 3d 89 c4 fc bc
       -0.024808578 -0.026118027 0.05896211 -0.030855434
000100 d0 98 10 3e 13 79 93 bd ed 7c 91 3b 12 df c4 bc
       0.14120793 -0.072008274 0.004439941 -0.02403215
000110 1a d9 c6 bd a5 6c 86 bd ce e7 74 bb 55 06 14 bd
       -0.097093776 -0.06563691 -0.0037369612 -0.03613885
000120 38 5d e7 3d b4 8b 1c bd 85 99 90 3d 88 98 6d 3c
       0.11297077 -0.03821917 0.070605315 0.014501698
000130 d7 40 91 be 7f 3d 87 bd 54 02 f4 bc 72 20 eb 3c
       -0.2836978 -0.06603526 -0.029786266 0.028701995
000140 c3 b3 84 3c 5a 06 20 bd 0e 19 1e bd 42 b8 69 39
       0.016198998 -0.039068557 -0.038598113 0.00022289253
000150 35 19 84 bd ac 35 23 3e 09 df 99 bd 43 07 3b 3e
       -0.0645012 0.15938443 -0.07513244 0.18264489
000160 e7 40 b4 3d 5b e7 38 3d fd cc e8 3d 1f 34 91 bd
       0.08801442 0.045142513 0.113672234 -0.070900194
000170 49 6e 62 bd d2 8f f0 3c 26 aa b6 3d c2 e8 9f bd
       -0.055280957 0.029365454 0.08919172 -0.07808067
000180 97 f2 91 3d b6 1d bc bc 51 62 f2 3c 68 59 53 3d
       0.071263485 -0.022963386 0.029587897 0.051598936
000190 66 7c 55 3b 2f 62 47 bd b3 fd 1b bd 8f e7 75 bd
       0.0032575368 -0.04867762 -0.038083743 -0.060035285
0001a0 09 03 8a 3d 6a 73 1b 3e 44 27 15 3c 48 42 70 bc
       0.0673886 0.15180746 0.0091036 -0.01466424
0001b0 f2 75 8a 3e 31 87 ef 3d 48 c8 1d bc f0 b2 e3 bc
       0.2704311 0.116957076 -0.00963027 -0.027795285
0001c0 7f 41 47 3c 3b 9f c4 bb cd a5 b7 3d 85 b2 b6 bd
       0.012161612 -0.006000427 0.08967171 -0.08920769
0001d0 5e e7 90 3d b1 f1 e7 bd 46 16 dd bb e0 14 07 bc
       0.0707538 -0.11325396 -0.00674704 -0.008244723
0001e0 90 7e b3 3c f8 f3 00 3d cc 53 c7 bd d6 7c 0b be
       0.021910936 0.031482667 -0.0973278 -0.1362184
0001f0 19 9a 2a bd b3 af 3c bb fe a7 b0 bc 2a b2 45 3d
       -0.041650865 -0.0028791248 -0.02156448 0.048265614
000200 47 71 2f 3e 32 97 d5 3b e4 05 ef bc e0 aa 3a 3c
       0.17133056 0.006518268 -0.029177614 0.011393279
000210 b5 5e dc bd 5c 43 00 be 18 23 7c bd 90 03 29 bd
       -0.107602514 -0.12525696 -0.061556906 -0.041263163
000220 68 54 9d 3d 4f 3b 9d bd 98 7d f9 3d cb e5 0a 3e
       0.07682115 -0.07677328 0.12182158 0.13564222
000230 dc 1a 6c bc 26 a7 14 bd 79 49 3f bd ba 0b bc 3d
       -0.014410701 -0.036292218 -0.04670093 0.09181924
000240 59 48 21 3c 96 9b 98 bd 54 e2 76 bd 1f 12 5d 3d
       0.009843909 -0.07451551 -0.060274437 0.05397236
000250 94 12 b8 3c e1 6e 8b 3c ae 2f a6 bd c5 b0 2b 3e
       0.022469796 0.017020645 -0.08114563 0.16766651
000260 cf c3 64 3d c7 83 92 3d 53 06 eb 3c 1e 16 79 be
       0.0558508 0.07154041 0.028689539 -0.24324843
000270 52 7c 2c bd 4d 13 ae 3d 88 7d d0 3c c7 ae 92 bd
       -0.04211075 0.08499775 0.025450483 -0.071622424
000280 46 06 3c 3d 42 98 69 bd aa 7f cb bb c4 b8 6b 3d
       0.04590442 -0.05702997 -0.006210287 0.057549253
000290 fc 56 1f bd 09 95 0a bd 2c c2 aa bc 37 49 43 bd
       -0.038901314 -0.033833537 -0.020844541 -0.047677245
0002a0 d0 5a cf 3d 03 f3 dc 3d 5c 5f 28 bd 5a c3 06 bd
       0.10124743 0.10788538 -0.041106567 -0.032901146
0002b0 e5 24 2e bd 75 37 cf 3d 63 b3 75 bd 47 be 9d 3c
       -0.042515654 0.101179995 -0.05998553 0.01925577
0002c0 ed 6a 24 bb 5f 22 44 3d a5 34 58 3d 30 d0 5a bd
       -0.0025088147 0.04788434 0.05278458 -0.0534212
0002d0 62 a8 99 3c f1 e7 6c 3d a1 93 d7 bb dc 3b a4 3c
       0.018757049 0.057838384 -0.006578878 0.020048074
0002e0 2a ac 78 3d 03 03 00 3d 51 58 d7 bd 5c b5 a5 be
       0.060711063 0.031252872 -0.10514892 -0.3236493
0002f0 c6 b7 46 bd 16 72 e2 3c e6 be 7d 3d 4a 61 92 3c
       -0.048515104 0.027642291 0.061949633 0.017868657
000300 40 75 4c 3e 5c d9 f3 bd 67 71 38 bd 21 db 17 bd
       0.19966602 -0.119066924 -0.045030024 -0.037074212
000310 5e ca ca bc c6 43 60 bd 14 bd ad 3b d4 b6 30 bd
       -0.0247547 -0.054752134 0.005302081 -0.04314311
000320 fd 7a d8 3d e4 64 97 bd 31 e4 09 3e 33 d7 5d 3d
       0.10570333 -0.0739229 0.13465954 0.054160308
000330 5b 3c 8d bd 5d 6a d2 bc 40 b3 4d bd 1a 94 a3 3d
       -0.068962775 -0.025685484 -0.050219774 0.079872325
000340 71 94 dd 3c 3a 45 a7 bd 1e 93 2a ba f9 ae 6b bc
       0.027048321 -0.08167501 -0.00065069075 -0.014384978
000350 d7 79 a5 bd 3c 7e 41 3e 6b 64 2d bd 21 f9 21 3e
       -0.0807988 0.18895811 -0.042332094 0.15817691
000360 6a 09 aa 3d 23 a1 0f 3d eb 1c d7 3d b6 dc 86 be
       0.08302577 0.03506578 0.105035625 -0.26340264
000370 26 79 85 bd e6 5a ca 3d 08 9c 83 3d 1b 69 31 bd
       -0.06517248 0.09880619 0.06426245 -0.043313127
000380 2d ba de bb 41 42 26 bd a4 58 61 3d c9 26 ab 3c
       -0.006797096 -0.04059053 0.055016175 0.020892518
000390 f3 ac df bd 46 14 e3 3b cf dc 06 3d 1a 89 a6 bb
       -0.10921659 0.006929907 0.032925423 -0.0050822617
0003a0 b2 32 24 3e 8e 8d 35 3e 89 ee b0 bc 38 0b 08 be
       0.16034964 0.1772978 -0.021598117 -0.1328553
0003b0 cc e1 4f be 51 01 e1 3c ba 10 28 bd 87 b8 2e bd
       -0.20300978 0.027466448 -0.041031577 -0.042656448
0003c0 6f e0 66 bd 0f ac 41 3d f7 f6 33 3d 04 6d 7d bd
       -0.05636638 0.04728323 0.043936696 -0.061871544
0003d0 a3 ca ac bc 34 6e 43 3c ea 66 86 3b e5 5a 00 3d
       -0.021092718 0.01192813 0.004101624 0.031336684
0003e0 ac 6e 87 3d 68 23 0e bd 70 62 32 bd 4d b4 63 be
       0.06612906 -0.034701735 -0.04355091 -0.22236748
0003f0 a0 08 09 bd a2 29 84 bd 9f e1 cd 3d a0 44 06 bd
       -0.03345549 -0.06453253 0.100527994 -0.03278029

conv4_3.bias f4 [10]
000000 0d 0c 13 3f 71 fc a8 3e f2 a8 96 3e c4 5c a3 be
       0.57440263 0.33005098 0.2942577 -0.31906712
000010 a9 4c b8 3e 97 3f d2 3e f4 d5 cd 3e d4 78 97 3e
       0.35995987 0.4106414 0.40202296 0.29584372
000020 d4 36 4a be 41 34 ef be
       -0.19747478 -0.46719554
