param/rnet.pt (torch_old, 407222 bytes, 13 tensors)

pre_layer.0.weight f4 [28, 3, 3, 3]
-0.10699039 -0.11695815 -0.058612138 -0.1863555 -0.16470544 -0.21679083 -0.25766677 0.049054857
-0.20074515 0.17232664 0.21636826 -0.08191526 -0.04500092 -0.012560317 0.23914261 0.19552583
-0.07021955 0.23815016 0.19959395 0.167804 -0.14742815 -0.05052239 0.01607353 0.021016845
0.2091242 -0.007199271 0.10610074 -0.063509 -0.1405564 -0.15835251 -0.22175148 -0.19519962
-0.2892846 0.2465778 0.25326174 0.2503838 0.041370112 -0.092775695 -0.0010169101 -0.17026818
-0.1997683 -0.052602265 0.1085203 0.21227214 0.23365815 -0.16908145 0.13116601 -0.0925443
0.0015165043 0.0062397243 -0.04198417 0.061039075 0.06039163 0.04147699 -0.052982822 0.011774116
0.13878524 0.104604036 -0.07769537 -0.005068042 0.07497081 0.07897669 -0.147073 0.080887645
0.09035854 0.06330275 -0.070868 0.026672287 -0.14448927 0.116507016 -0.02815058 -0.054041382
0.003918096 -0.059997138 -0.010987621 -0.16015393 -0.27970368 -0.21987782 -0.01724961 0.20319718
0.26098195 0.12768069 -0.084305406 0.14804743 0.21897426 0.01828804 -0.019982195 0.09805079
-0.12629847 -0.022814311 -0.15074688 -0.025580479 -0.25559717 -0.2357323 -0.07481345 0.0013224583
-0.05465761 -0.0620402 0.09768984 0.052026447 0.04690288 0.040516924 -0.07729901 0.19896649
0.14881851 -0.038351577 0.065585636 -0.14844666 -0.050152123 0.22305402 0.25004983 0.05232988
-0.3789881 0.102770224 -0.017035719 -0.15059362 -0.04712948 -0.04374938 -0.10299624 0.34607315
0.012562368 -0.22413297 -0.21489032 0.2737846 -0.1509142 0.09598894 -0.0678489 0.083456725
0.36478105 -0.27531707 -0.17251064 -0.06894961 0.28327358 0.08326619 -0.16374658 0.1356145
-0.050950263 -0.023686951 0.22087559 0.21563938 0.22753353 -0.17600682 -0.20980546 -0.22933647
0.010326536 -0.09240168 0.06847141 0.12890504 0.20507571 0.051916733 -0.24535272 -0.14038992
-0.25280544 0.009470356 -0.13400334 0.012666855 0.21216553 0.10130925 0.340305 -0.23686546
-0.023348376 -0.28195843 -0.09758123 0.14303863 -0.032910958 0.11420259 -0.15868177 0.03521002
-0.23470937 -0.33455378 -0.29776108 0.0014488824 0.26199687 0.099729344 0.013490441 -0.057479102
0.2438386 0.12643887 -0.017575266 0.04701009 0.09083356 0.24793689 0.03832312 0.16216889
0.075468905 -0.05240659 -0.10444651 -0.18156677 0.031210003 0.073785916 0.1347904 0.04783046
-0.11533428 -0.015246632 -0.079582326 -0.05190478 0.0019527887 -0.14687242 0.10234074 0.053689677
-0.09301101 -0.21996285 0.07348238 0.022896182 -0.07053964 -0.102788016 -0.0055529433 -0.01419489
0.051000226 0.20648825 -0.25954443 -0.033674646 0.18125476 -0.07596536 -0.09946413 0.04334273
-0.06851195 0.08819938 -0.02832971 0.10189329 -0.2428916 -0.02604043 -0.08003942 -0.28911182
0.043148965 0.12589872 0.05729747 0.119623065 0.15315005 0.08425029 0.15183884 0.21917139
-0.07428548 0.26843134 -0.1710987 -0.120662995 -0.10448453 -0.20217133 -0.3020713 0.14464326
-0.16000138 -0.13395 0.08097165 0.11028318 -0.034571152 0.080401264 0.094358556 0.11988495
-0.14387715 0.14267811 0.14578977 0.017757567 -0.25843254 0.015083971 -0.14908771 -0.22054914
00000000: c71d dbbd c187 efbd 4813 70bd fad3 3ebe
00000010: 8ba8 28be 6afe 5dbe e6ec 83be bfed 483d
00000020: 2390 4dbe 6576 303e a48f 5d3e 30c3 a7bd
00000030: e252 38bd cac9 4dbc cde1 743e ec37 483e
00000040: 44cf 8fbd a3dd 733e 5b62 4c3e d0d4 2b3e
00000050: 68f7 16be 91f0 4ebd a3ac 833c 852b ac3c
00000060: a724 563e dde7 ebbb 584b d93d 0211 82bd
00000070: 04ee 0fbe 2927 22be d212 63be 69e2 47be
00000080: 1c1d 94be e47e 7c3e 86ab 813e 4e32 803e
00000090: b573 293d 2f01 bebd d749 85ba c85a 2ebe
000000a0: 1090 4cbe 7975 57bd e43f de3d de5d 593e
000000b0: 1544 6f3e b023 2dbe 6250 063e de87 bdbd
000000c0: 71c5 c63a 9a76 cc3b 98f7 2bbd 1c04 7a3d
000000d0: 375d 773d c7e3 293d 8404 59bd 39e8 403c
000000e0: b81d 0e3e a43a d63d c01e 9fbd d111 a6bb
000000f0: 4c8a 993d 88be a13d 4e9a 16be 6ca8 a53d
00000100: e60d b93d dfa4 813d 3e23 91bd d77f da3c
00000110: fff4 13be 3b9b ee3d 0c9c e6bc 7f5a 5dbd
00000120: 5f63 803b 8fbf 75bd 6c05 34bc 64ff 23be
00000130: 5235 8fbe a727 61be 0e4f 8dbc ec12 503e
00000140: 6d9f 853e babe 023e 50a8 acbd bf99 173e
00000150: ca3a 603e cdd0 953c b3b1 a3bc dace c83d
00000160: 6354 01be 14e5 babc 645d 1abe 278e d1bc
00000170: a2dd 82be cf63 71be cb37 99bd 5656 ad3a
00000180: a8e0 5fbd dd1d 7ebd 9c11 c83d af19 553d
00000190: 3c1d 403d 13f5 253d f14e 9ebd dfbd 4b3e
000001a0: e163 183e 8b16 1dbd c351 863d 6702 18be
000001b0: 506c 4dbd 4668 643e 8806 803e db57 563d
000001c0: ba0a c2be 3279 d23d 7e8e 8bbc 3735 1abe
000001d0: d70a 41bd 8d32 33bd b1ef d2bd 8030 b13e
000001e0: 64d2 4d3c 1d83 65be 350c 5cbe 7f2d 8c3e
000001f0: 4189 1abe d995 c43d 5df4 8abd 5ceb aa3d
00000200: 95c4 ba3e 5cf6 8cbe a1a6 30be 7435 8dbd
00000210: 3c09 913e 7787 aa3d 2fad 27be 87de 0a3e
00000220: 39b1 50bd 230b c2bc 362d 623e 92d0 5c3e
00000230: 8dfe 683e 223b 34be 3ed7 56be 2ed7 6abe
00000240: a230 293c 183d bdbd bd3a 8c3d afff 033e
00000250: 5eff 513e a4a6 543d be3d 7bbe 60c2 0fbe
00000260: b76f 81be 8d29 1b3c 2c38 09be a488 4f3c
00000270: ec41 593e 397b cf3d 753c ae3e dc8c 72be
00000280: 1845 bfbc db5c 90be abd8 c7bd b878 123e
00000290: a4cd 06bd 0ce3 e93d 797d 22be 6238 103d
000002a0: a757 70be a24a abbe 2474 98be 6de8 bd3a
000002b0: 7424 863e e63e cc3d 0307 5d3c 356f 6bbd
000002c0: d3b0 793e 3179 013e 01fa 8fbc a78d 403d
000002d0: f206 ba3d 2be3 7d3e b4f8 1c3d 9a0f 263e
000002e0: 718f 9a3d 4ba8 56bd 0de8 d5bd a4ec 39be
000002f0: 1fac ff3c 121d 973d 7f06 0a3e dfe9 433d
00000300: 6134 ecbd 02cd 79bc 0ffc a2bd 1b9a 54bd
00000310: b7f4 ff3a b965 16be 0698 d13d b5e9 5b3d
00000320: 8e7c bebd f13d 61be ee7d 963d c690 bb3c
00000330: 1677 90bd 8682 d2bd 77f5 b5bb af91 68bc
00000340: 9de5 503d a871 533e 02e3 84be 6dee 09bd
00000350: d99a 393e ba93 9bbd dab3 cbbd 2588 313d
00000360: fe4f 8cbd e0a1 b43d b513 e8bc 6ead d03d
00000370: 93b8 78be bd52 d5bc b5eb a3bd 7706 94be
00000380: f8bc 303d 98eb 003e c0b0 6a3d f0fc f43d
00000390: 5ed3 1c3e 6b8b ac3d a47b 1b3e 776e 603e
000003a0: fc22 98bd d56f 893e 7f34 2fbe 291e f7bd
000003b0: fcfb d5bd 0006 4fbe 17a9 9abe 5d1d 143e
000003c0: 67d7 23be 302a 09be 77d4 a53d 26dc e13d
000003d0: 7b9a 0dbd 6ba9 a43d 0f3f c13d 3e86 f53d
000003e0: 8854 13be 361a 123e ea49 153e 5178 913c
000003f0: 4551 84be c322 773c 73aa 18be a2d7 61be

pre_layer.0.bias f4 [28]
0.111729264 -0.018770624 -0.07082859 -0.12561919 0.033656757 0.026730666 0.050843216 -0.02719454
0.055841457 -0.011904564 -0.06965163 -0.09608396 0.053507198 -0.010580193 0.0083486205 -0.05313069
-0.005860682 0.0072172796 0.012447267 0.0007177708 0.019026907 -0.097612955 -0.19005296 -0.17626143
-0.049779765 -0.14572231 -0.16572796 0.07817204
00000000: 50d2 e43d dac4 99bc 940e 91bd 51a2 00be
00000010: abdb 093d 45fa da3c fa40 503d 15c7 debc
00000020: 03ba 643d 5c0b 43bc 84a5 8ebd abc7 c4bd
00000030: 5d2a 5b3d 8c58 2dbc a7c8 083c 919f 59bd
00000040: f70a c0bb ee7e ec3b 9fef 4b3c c828 3c3a
00000050: 51de 9b3c 4de9 c7bd 3e9d 42be e07d 34be
00000060: dee5 4bbd 3b38 15be 97b4 29be aa18 a03d

pre_layer.3.weight f4 [48, 28, 3, 3]
-0.08093717 -0.020908259 0.028658941 0.055180833 0.065605186 -0.088564835 -0.112724 -0.086912
-0.25848615 0.102903 0.096614935 0.08095279 -0.051791858 -0.0017266683 -0.21288633 0.04895227
0.04946694 -0.28883144 -0.0070493086 0.044182844 0.0731157 0.11142572 0.041496944 -0.089564815
-0.013637802 -0.035651445 -0.10510963 0.12970048 0.11990014 0.08351095 0.052216515 -0.06654855
-0.016025294 -0.008099674 -0.09520013 0.012818618 -0.11912674 0.013449603 0.031942815 -0.004114846
0.13085778 0.0014334006 0.052153524 -0.12730281 -0.07987953 0.08571691 0.14084788 -0.11279208
0.12947544 0.15642038 -0.13386555 -0.23150261 -0.2712412 -0.33270085 -0.022656495 0.14657605
0.048964586 -0.006655219 0.19209248 -0.06431767 -0.18327701 -0.17625844 -0.20975365 -0.051794134
-0.109042875 -0.0013961338 -0.11353034 0.034471486 0.19272657 -0.045378227 -0.123097256 -0.061662614
-0.0027968048 -0.15522572 -0.11366495 0.093977936 0.12676388 0.08069876 0.13311498 -0.06530205
0.00742226 0.0010174261 0.018002894 0.03196012 0.06713819 0.035143524 -0.00014631561 -0.087618925
-0.11311436 -0.014393324 0.035872046 -0.084056154 -0.21028906 0.17737158 0.069886595 -0.13149378
-0.10089671 0.112384714 0.2517507 -0.0661677 -0.020367902 -0.14756683 -0.09734387 0.14487314
-0.03967802 -0.17965317 0.06684007 0.013994387 -0.0101020085 -0.059750453 -0.08890899 0.031968895
0.056435797 0.035514224 -0.092186175 -0.025595736 0.0063579893 -0.12102686 -0.10022529 -0.18093114
-0.103973866 0.056417994 -0.0688393 0.17995284 0.3413003 0.0068892483 -0.048107587 -0.04829463
0.0055838306 0.021184286 0.063617 0.15452188 0.071645334 -0.1447796 -0.12017152 -0.14689554
-0.13133126 0.080256194 0.12529379 0.014588758 0.04929294 -0.038672138 -0.030136628 0.07294969
0.00034205677 -0.016723504 -0.1739716 0.30128002 0.10785786 -0.23760246 0.12343271 -0.05666191
-0.18331641 0.0027814666 -0.1522674 -0.048218504 0.020184247 0.07537488 0.18815711 -0.071401164
0.11340023 0.14578272 -0.1956105 -0.01907782 0.19277292 0.05151579 -0.061120182 0.17371531
0.02109335 -0.091932796 0.010128264 0.03020199 -0.13433337 -0.017902229 0.12633513 -0.035114583
0.074840076 0.07622881 -0.05185186 0.07208472 -0.06277254 -0.026582167 0.012372715 -0.028405871
0.14463063 -0.057975356 -0.12746792 -0.05556296 -0.024590204 -0.01079897 -0.067799516 0.020481894
0.069879375 0.069365345 -0.03516013 -0.04115151 -0.03142228 -0.042292167 -0.107827395 0.11867949
0.043096647 -0.06216495 0.10350428 0.08426495 0.010457832 -0.049792655 -0.054085314 -0.18168804
-0.091793455 0.03876892 -0.021222796 0.05931088 0.004522067 0.23701876 0.2250364 0.005586884
-0.035520732 -0.062354695 -0.035468932 0.11921403 0.095190965 -0.12243597 -0.05220551 0.009512384
-0.050881103 0.026546538 0.107349835 -0.21330602 0.14388268 0.20059732 -0.16368806 -0.20748903
0.062512316 -0.045156535 0.25308987 -0.00046931175 -0.018465497 0.18423623 -0.006080019 -0.11254957
-0.110499375 0.108693935 -0.029989459 0.101344876 -0.27076226 -0.25093588 0.017280476 0.058942784
-0.029490562 0.18765686 0.23575252 -0.06402302 -0.13139328 -0.079294436 -0.048636198 -0.019834498
00000000: 63c2 a5bd cc47 abbc 28c6 ea3c 4c05 623d
00000010: 035c 863d 7b61 b5bd d7db e6bd ebfe b1bd
00000020: 4c58 84be cfbe d23d 0dde c53d 94ca a53d
00000030: b323 54bd 6051 e2ba e0fe 59be 2d82 483d
00000040: d99d 4a3d b7e1 93be e3fd e6bb 12f9 343d
00000050: afbd 953d 2b33 e43d b3f8 293d c26d b7bd
00000060: 1671 5fbc 4007 12bd b843 d7bd 34d0 043e
00000070: 348e f53d ca07 ab3d fce0 553d 9b4a 88bd
00000080: 7a47 83bc 7fb4 04bc 49f8 c2bd 2e05 523c
00000090: b8f8 f3bd b95b 5c3c 78d6 023d d4d5 86bb
000000a0: 95ff 053e f1e0 bb3a ef9e 553d ab5b 02be
000000b0: e197 a3bd 598c af3d 6d3a 103e 89ff e6bd
000000c0: 3695 043e aa2c 203e 0d14 09be 050f 6dbe
000000d0: 20e0 8abe c457 aabe 1d9a b9bc 0818 163e
000000e0: 178f 483d 0614 dabb e4b3 443e fcb8 83bd
000000f0: f8ac 3bbe 187d 34be a9c9 56be 1626 54bd
00000100: df51 dfbd 7afe b6ba 9882 e8bd f931 0d3d
00000110: 1d5a 453e 85de 39bd 6a1a fcbd f091 7cbd
00000120: 994a 37bb 7ef3 1ebe 2bc9 e8bd 8177 c03d
00000130: 64ce 013e 6445 a53d 4b4f 083e 15bd 85bd
00000140: 6e36 f33b 285b 853a ce7a 933c 9de8 023d
00000150: bf7f 893d a8f2 0f3d 4c6c 19b9 8d71 b3bd
00000160: 80a8 e7bd fad1 6bbc 91ee 123d a225 acbd
00000170: 0456 57be e5a0 353e b420 8f3d 4ea6 06be
00000180: efa2 cebd f529 e63d 78e5 803e ee82 87bd
00000190: 96da a6bc c21b 17be 395c c7bd a059 143e
000001a0: 6b85 22bd 00f7 37be 72e3 883d b748 653c
000001b0: e582 25bc e4bc 74bd eb15 b6bd d1f1 023d
000001c0: 3929 673d 5d77 113d 1bcc bcbd 26ae d1bc
000001d0: ae56 d03b eedc f7bd eb42 cdbd 0346 39be
000001e0: 40f0 d4bd 8e16 673d 9efb 8cbd 8f45 383e
000001f0: eabe ae3e 34bf e13b 760c 45bd 97d0 45bd
00000200: 91f8 b63b ab8a ad3c a149 823d fc3a 1e3e
00000210: caba 923d 1a41 14be 7c1c f6bd c96b 16be
00000220: b47b 06be 5c5d a43d 044d 003e b005 6f3c
00000230: 65e7 493d ad66 1ebd 17e1 f6bc a666 953d
00000240: 1556 b339 bbff 88bc 9c25 32be 6041 9a3e
00000250: 95e4 dc3d 0f4e 73be 4aca fc3d 5216 68bd
00000260: 4cb7 3bbe 4449 363b fceb 1bbe c480 45bd
00000270: 6f59 a53c 255e 9a3d 42ac 403e c63a 92bd
00000280: 613e e83d 1148 153e 1e4e 48be 1749 9cbc
00000290: 4466 453e 3902 533d 2859 7abd 6de2 313e
000002a0: f6cb ac3c 4347 bcbd 05f1 253c 2a6a f73c
000002b0: b08e 09be b2a7 92bc ff5d 013e 4fd4 0fbd
000002c0: c145 993d da1d 9c3d 9e62 54bd 27a1 933d
000002d0: e48e 80bd d8c2 d9bc eeb6 4a3c 6eb3 e8bc
000002e0: 0d1a 143e 9177 6dbd f386 02be fd95 63bd
000002f0: 6571 c9bc 2aee 30bc 79da 8abd a5c9 a73c
00000300: eb1c 8f3d 6b0f 8e3d 1204 10bd 7c8e 28bd
00000310: a6b4 00bd 8d3a 2dbd 9cd4 dcbd 3c0e f33d
00000320: 1c86 303d ada0 7ebd 0dfa d33d 1a93 ac3d
00000330: 5457 2b3c 62f3 4bbd 9088 5dbd 6e0c 3abe
00000340: 35fe bbbd 29cc 1e3d 6edb adbc f7ef 723d
00000350: d92d 943b 0cb5 723e f16f 663e 2e12 b73b
00000360: 307e 11bd a367 7fbd df47 11bd 7c26 f43d
00000370: 7bf3 c23d b6bf fabd 72d5 55bd d5d9 1b3c
00000380: b468 50bd 2078 d93c 3bda db3d e56c 5abe
00000390: fb55 133e 6269 4d3e d89d 27be 0178 54be
000003a0: 7506 803d 0ff6 38bd ff94 813e f50d f6b9
000003b0: f444 97bc 6ca8 3c3e e53a c7bb 6480 e6bd
000003c0: 7f4d e2bd ed9a de3d 74ac f5bc e78d cf3d
000003d0: 5aa1 8abe ab7a 80be c98f 8d3c fd6d 713d
000003e0: 3196 f1bc 1f29 403e 1c69 713e 801e 83bd
000003f0: f68b 06be 1f65 a2bd c036 47bd f57b a2bc

pre_layer.3.bias f4 [48]
-0.07046321 0.03977297 0.063246906 0.10013952 -0.16302946 -0.108520314 0.048081186 -0.070403814
0.015227299 -0.17378198 -0.106643215 -0.03289198 -0.010496382 -0.02686567 0.0909245 0.026165184
-0.10618808 0.055307183 -0.13052806 0.03237774 -0.010997233 -0.09597116 0.01764319 -0.102592915
-0.095926 -0.0033756038 -0.0027651703 -0.031438835 0.060838882 -0.14527701 -0.13415173 0.0100637125
-0.017649904 -0.00697623 -0.04366885 0.050806083 0.016371194 0.02099208 0.036882006 0.09303425
0.004233881 -0.19321822 -0.006938902 0.08232844 -0.05643131 -0.15414731 -0.19473375 -0.063751936
00000000: 044f 90bd fbe8 223d 9887 813d f315 cd3d
00000010: 32f1 26be e63f debd c7f0 443d e02f 90bd
00000020: ec7b 793c e7f3 31be c267 dabd beb9 06bd
00000030: 04f9 2bbc 6515 dcbc a036 ba3d 5e58 d63c
00000040: 2379 d9bd c989 623d 26a9 05be 859e 043d
00000050: bd2d 34bc 878c c4bd 7488 903c 3c1c d2bd
00000060: da74 c4bd 3c39 5dbb dc37 35bb 02c6 00bd
00000070: 3132 793d 7fc3 14be 125f 09be 45e2 243c
00000080: 8896 90bc dc98 e4bb 1cde 32bd 0a1a 503d
00000090: e21c 863c 95f7 ab3c 9611 173d be88 be3d
000000a0: 5ebc 8a3b ffda 45be bb5f e3bb d09b a83d
000000b0: 8424 67bd cbd8 1dbe 4968 47be 6090 82bd

pre_layer.6.weight f4 [64, 48, 2, 2]
-0.049573492 -0.14229172 -0.01264609 0.11097749 -0.0016666426 -0.0048858332 0.11333847 -0.044871755
0.028046222 0.011965782 -0.14600699 0.0764037 -0.10175564 -0.014007629 -0.22517087 0.07104456
-0.04015302 -0.09912438 -0.10228543 0.057542235 0.1366264 -0.061187204 0.036161404 -0.06450441
-0.05798584 -0.029818904 0.08670229 0.20163277 -0.17200337 -0.08250722 0.08716043 -0.16827117
0.217548 -0.08294781 0.04194599 -0.14274454 0.01606784 -0.066024356 -0.02338266 0.012178914
0.044797637 -0.16675484 -0.024106378 -0.0101529425 -0.21850966 -0.042459454 -0.052547142 -0.025880914
0.036872078 0.1350588 0.077518165 0.06670065 -0.077892855 -0.05437343 -0.07414768 -0.010789795
-0.019447869 -0.09417267 -0.009652188 0.0461022 -0.019121729 -0.0795995 -0.117272295 0.11561619
-0.027019078 0.14001054 -0.017233193 0.10652187 -0.13232741 -0.2104533 -0.14954852 -0.049124554
-0.07024745 -0.10136186 -0.20121002 -0.05310937 -0.026682176 -0.037674014 0.2775681 0.007028007
0.09304317 0.04319025 0.02778497 -0.010396797 0.11420114 0.13031851 0.028746322 -0.0035873963
-0.004027573 0.07274318 0.27710432 -0.048888706 -0.15611391 0.009959221 -0.123739876 -0.02190081
-0.30767575 0.10497903 -0.109168254 -0.058171928 -0.15173058 0.13365667 -0.1539266 0.22785385
-0.04496608 0.13298666 -0.07009646 0.08420313 -0.028577313 0.09971154 -0.09819383 0.05595999
-0.20178725 0.03179428 -0.16287431 0.23449013 -0.009944841 0.058209702 -0.03569207 0.09085755
-0.20336966 0.029049596 -0.07743376 0.09134937 0.05180606 0.033711467 -0.15978935 0.009749228
0.12121821 0.16269985 -0.16358925 -0.21597661 -0.13009045 -0.11053271 0.23448798 0.2028214
-0.053029656 0.07975341 -0.056750126 0.09576538 0.03716622 -0.021478565 0.036942378 0.088358104
0.056735862 -0.26655987 -0.124353595 -0.04110115 0.02527517 0.10772808 0.031107053 0.0930657
0.0055620777 -0.100121535 -0.0032434845 -0.060631793 -0.113813475 -0.015727501 -0.18255801 -0.15805635
0.17051719 -0.051844113 -0.033306636 -0.080860615 -0.082500026 -0.013288839 -0.03427934 0.0059815394
0.0042305933 0.12497319 -0.014458491 -0.115762725 0.04264467 -0.1886226 -0.14002147 -0.23825784
-0.08917914 0.031244118 -0.1818925 0.07038952 -0.13297829 0.06414961 -0.14040527 0.066146016
-0.05138576 0.039342437 0.13908234 0.009920968 0.0033573534 0.07098724 -0.03725061 -0.020867921
-0.28129297 -0.3283243 -0.15760244 -0.12750459 0.115141585 0.15416065 0.114221364 0.044099666
0.06013457 0.087844975 0.07293611 0.081595205 0.024316661 -0.0037373777 0.08685622 0.122353256
0.0953397 -0.13054441 0.04915961 0.13479155 0.058401737 -0.024071818 0.021698954 -0.07102299
-0.041417047 0.09575916 0.014133552 0.1676974 -0.14708072 -0.01742447 -0.06790114 0.032417636
-0.16166735 -0.21344955 -0.09244945 -0.14188209 -0.045840558 0.02749835 -0.093713515 0.10480674
-0.048517205 -0.00869131 -0.029371535 -0.037885807 0.09709029 0.11504044 -0.14384955 0.05666316
0.07796921 0.069056004 0.021935232 0.12518266 0.05657448 -0.05211885 0.1175865 0.08305079
-0.0066336454 0.07827318 0.09950038 0.13963622 0.015363481 0.08556411 0.113563314 0.11939733
00000000: 930d 4bbd ecb4 11be 8c31 4fbc 2b48 e33d
00000010: 3f73 daba 5719 a0bb 001e e83d 72cb 37bd
00000020: 31c1 e53c 210c 443c db82 15be 8b79 9c3d
00000030: 4365 d0bd 4180 65bc 3193 66be cf7f 913d
00000040: 7e77 24bd b901 cbbd 067b d1bd 68b1 6b3d
00000050: cae7 0b3e 6f9f 7abd fb1d 143d e31a 84bd
00000060: 8f82 6dbd c646 f4bc f890 b13d d278 4e3e
00000070: a721 30be 8cf9 a8bd 2b81 b23d 474f 2cbe
00000080: e7c4 5e3e 8be0 a9bd 8fcf 2b3d a02b 12be
00000090: b4a0 833c c737 87bd fe8c bfbc 118a 473c
000000a0: ba7d 373d c8c1 2abe bd7a c5bc 8758 26bc
000000b0: ffc0 5fbe f7e9 2dbd ac3b 57bd 3604 d4bc
000000c0: 2d07 173d db4c 0a3e d8c1 9e3d 5a9a 883d
000000d0: 4a86 9fbd acb6 5ebd bdda 97bd aec7 30bc
000000e0: 2351 9fbc 9add c0bd 3624 1ebc a9d5 3c3d
000000f0: 2ca5 9cbc 1005 a3bd 752c f0bd 2ec8 ec3d
00000100: 1d57 ddbc ec5e 0f3e a02c 8dbc 2328 da3d
00000110: d680 07be 1281 57be 3f23 19be d436 49bd
00000120: e5dd 8fbd cf96 cfbd 000a 4ebe 3689 59bd
00000130: 9494 dabc 1150 1abd 681d 8e3e 324b e63b
00000140: 6b8d be3d 42e8 303d 4e9d e33c 5457 2abc
00000150: 4ae2 e93d 3772 053e 687d eb3c 861a 6bbb
00000160: bbf9 83bb 60fa 943d 9ee0 8d3e 863f 48bd
00000170: 53dc 1fbe 002c 233c 556b fdbd 5469 b3bc
00000180: ad87 9dbe 3fff d63d 9b93 dfbd b045 6ebd
00000190: 435f 1bbe 4bdd 083e ef9e 1dbe 8552 693e
000001a0: 5a2e 38bd a82d 083e bc8e 8fbd b172 ac3d
000001b0: f81a eabc 9035 cc3d d919 c9bd 4d36 653d
000001c0: 51a1 4ebe b83a 023d 86c8 26be 2e1e 703e
000001d0: b0ef 22bc 4c6d 6e3d d931 12bd 8613 ba3d
000001e0: 2340 50be 6bf9 ed3c 9795 9ebd 6115 bb3d
000001f0: 9732 543d 0915 0a3d d29f 23be 3abb 1f3c
00000200: 4141 f83d ca9a 263e f183 27be f928 5dbe
00000210: 6e36 05be f95e e2bd 9e1d 703e 6ab0 4f3e
00000220: a035 59bd c155 a33d d272 68bd a420 c43d
00000230: 9b3b 183d d1f3 afbc e450 173d 18f5 b43d
00000240: dd63 683d 897a 88be 19ad febd ae59 28bd
00000250: e00d cf3c 8aa0 dc3d 38d4 fe3c 3b99 be3d
00000260: 1742 b63b 850c cdbd a490 54bb 0b59 78bd
00000270: 0a17 e9bd f6d6 80bc 7df0 3abe 86d9 21be
00000280: 0f9c 2e3e 7e5a 54bd 8a6c 08bd 409a a5bd
00000290: c6f5 a8bd 6eb9 59bc 7e68 0cbd ca00 c43b
000002a0: caa0 8a3b f2f1 ff3d 4ee3 6cbc 0215 edbd
000002b0: 2dac 2e3d 4826 41be ca61 0fbe ddf9 73be
000002c0: 8ea3 b6bd aaf3 ff3c 0742 3abe 6128 903d
000002d0: 762b 08be df60 833d 66c6 0fbe 9077 873d
000002e0: e079 52bd 8925 213d 9a6b 0e3e 8e8b 223c
000002f0: 0b07 5c3b c261 913d 1894 18bd 34f3 aabc
00000300: a205 90be 1f1a a8be 8962 21be 9090 02be
00000310: 5acf eb3d 4adc 1d3e e4ec e93d daa1 343d
00000320: ab4f 763d 11e8 b33d 875f 953d 631b a73d
00000330: bc33 c73c cbee 74bb ade1 b13d 5894 fa3d
00000340: 7641 c33d 6fad 05be 965b 493d cc06 0a3e
00000350: a936 6f3d 4332 c5bc 01c2 b13c 8074 91bd
00000360: eca4 29bd 611d c43d 6a90 673c deb8 2b3e
00000370: 549c 16be c3bd 8ebc c10f 8bbd 5bc8 043d
00000380: 208c 25be 8592 5abe 2356 bdbd 8a49 11be
00000390: 4fc3 3bbd 3844 e13c dfec bfbd eba4 d63d
000003a0: fab9 46bd ff65 0ebc 939c f0bc 262e 1bbd
000003b0: 46d7 c63d 529a eb3d 4c4d 13be a117 683d
000003c0: 52ae 9f3d 3c6d 8d3d 84b1 b33c e22f 003e
000003d0: a4ba 673d 937a 55bd 31d1 f03d 8816 aa3d
000003e0: 0d5f d9bb b04d a03d dbc6 cb3d ccfc 0e3e
000003f0: 1cb7 7b3c 3c3c af3d e293 e83d 9686 f43d

pre_layer.6.bias f4 [64]
-0.22918625 0.15380734 0.11411498 0.11670551 0.16908844 -0.032818567 -0.36581075 0.18558627
0.016441366 0.0772469 -0.118928224 0.13272056 0.25670975 0.052543666 0.031364746 -0.24770066
-0.12832919 0.12095778 0.12270435 -0.0889327 -0.0956664 -0.053431265 -0.07987804 0.14264967
-0.22719295 0.025944805 -0.0031889542 0.12659061 0.16543025 0.0018041625 -0.18660088 0.15240273
0.15342924 0.04985879 0.09120753 0.1755863 0.12083519 0.14653693 -0.038103968 0.121312626
0.16125135 0.030546134 -0.049578927 -0.29472202 0.20898196 0.03619933 0.14069325 0.1609209
0.15701036 0.028742215 -0.117140085 0.086497515 -0.0959168 -0.21477138 0.2020098 0.13689509
-0.052361954 0.09743551 -0.05103826 -0.31234878 0.14933096 0.19240515 -0.00077834656 -0.0452457
00000000: cdaf 6abe ac7f 1d3e 1db5 e93d 4c03 ef3d
00000010: 8525 2d3e c36c 06bd 8c4b bbbe 540a 3e3e
00000020: 0bb0 863c 9f33 9e3d a490 f3bd e6e7 073e
00000030: 766f 833e 0738 573d 5278 003d 3ea5 7dbe
00000040: ba68 03be b6b8 f73d 6b4c fb3d 5922 b6bd
00000050: bfec c3bd beda 5abd 1997 a3bd c112 123e
00000060: 45a5 68be 338a d43c c6fd 50bb f8a0 013e
00000070: 8c66 293e a679 ec3a 4d14 3fbe 760f 1c3e
00000080: 8e1c 1d3e bb38 4c3d 03cb ba3d e5cc 333e
00000090: 7178 f73d c70d 163e e812 1cbd c172 f83d
000000a0: 131f 253e e33b fa3c 4613 4bbd cee5 96be
000000b0: 5eff 553e c045 143d e411 103e 73c8 243e
000000c0: 53c7 203e cb74 eb3c 24e7 efbd 9c25 b13d
000000d0: 0770 c4bd 07ed 5bbe a8db 4e3e 3a2e 0c3e
000000e0: 7d79 56bd 458c c73d 7f0d 51bd 2eec 9fbe
000000f0: 37ea 183e db05 453e f409 4cba 8e53 39bd

conv4.weight f4 [128, 576]
0.005504807 -0.10782964 -0.030109655 -0.03587766 -0.015456176 0.0063645453 -0.099205874 -0.062472504
0.088828936 -0.08467355 0.021156173 -0.07231473 0.14831892 0.1295536 -0.021858511 0.039619096
-0.016478494 -0.05220498 -0.005414341 0.0023379833 -0.049997687 0.0275763 0.14584331 0.07944101
0.019726707 0.06156415 0.1480815 0.026402127 0.01716046 0.09702959 -0.0026453936 -0.0146997
0.07292722 -0.12387176 -0.019855008 0.107930385 0.039855894 0.20719433 0.11818692 -0.09817549
0.006768268 -0.0029820793 0.0052496125 0.11840154 0.010710723 0.024832306 -0.10646316 0.037071098
-0.011157672 -0.037239965 0.09339693 0.057145655 -0.0806617 -0.14612402 -0.0148409605 -0.08397881
-0.141653 0.006548806 0.015895827 -0.059146605 -0.07895186 0.0029288484 -0.02894702 0.05845853
0.044889096 0.22225466 -0.027600242 -0.020626359 0.047342323 -0.03231831 -0.031354334 0.042004224
-0.06443445 -0.020416431 0.005207742 0.025101192 0.057427984 -0.06219444 -0.0061664996 0.032470517
-0.045142975 0.05621993 0.03032784 0.20298214 0.08975938 -0.048013296 -0.017676936 0.06697619
0.014012716 0.022114089 -0.1749631 0.062132448 -0.22269285 -0.14811414 0.015184373 -0.07711417
-0.03382703 -0.0063171256 0.08670892 0.07920719 0.17893519 0.08957579 -0.14676903 -0.02945384
0.07628227 -0.068362914 0.016957827 0.04943334 -0.038050193 0.012414469 -0.0073414757 0.020913858
0.078471 -0.039894905 -0.095389105 0.011642379 0.10750301 -0.13832973 -0.00066862797 0.001303063
-0.09918185 0.05161749 -0.029438984 -0.023183286 0.096282944 -0.03745703 -0.06622932 -0.08028291
-0.0796257 0.1438751 0.10277479 -0.027186623 -0.10033707 -0.050783988 0.005946962 0.029151522
0.01934489 0.10122091 0.019413317 0.00037801723 0.022656858 -0.011349687 0.06548596 0.017748466
-0.07244961 0.04370903 -0.12023388 0.034665197 -0.015096557 -0.13610674 0.08280697 0.07807556
-0.023066303 0.11394961 0.047378983 -0.028881984 -0.08168108 0.073434934 0.11351627 0.059318032
0.063988715 0.0689007 0.07646067 0.019300295 0.062238857 -0.050672356 0.07370888 0.0657288
0.13255702 0.085716695 0.16820551 -0.029737143 0.053959593 0.0066339923 0.05339423 0.036827885
0.011218778 0.08767201 0.07679147 0.0825694 -0.14250724 -0.01361053 -0.10821807 0.0110067865
-0.05096605 -0.029478392 0.067093745 -0.067655355 -0.0421102 -0.0023537576 -0.01220598 -0.109362386
-0.079759635 0.014873416 -0.010409106 -0.24743359 -0.2336285 -0.35808557 -0.26285675 -0.12588885
-0.16964775 -0.08945192 -0.11278913 -0.11050804 -0.016998949 -0.09507564 -0.06748555 0.043008644
0.21704 0.06761113 -0.08724878 0.088175915 0.043558914 -0.034678735 0.051282294 0.06425813
-0.0345145 -0.08153455 0.0075333067 0.08374172 0.102741934 -0.03285895 -0.032439947 -0.024682509
0.01655395 -0.015486718 0.18811525 0.02355982 -0.053963464 0.0008569986 0.0073069106 0.14338684
0.11503477 0.037154455 0.12964138 -0.075381055 -0.091044284 0.046086174 0.1145496 -0.032579888
0.04569221 0.02663086 -0.02746598 0.21251924 0.13540165 0.021252861 0.07698389 -0.06833421
-0.07945916 0.0030375854 -0.041327327 -0.07681984 -0.06648707 -0.0064716362 0.08525668 0.0033425894
00000000: ab61 b43b c9d5 dcbd 86a8 f6bc 74f4 12bd
00000010: e73b 7dbc ad8d d03b 732c cbbd 2be3 7fbd
00000020: f2eb b53d 5469 adbd b64f ad3c bf19 94bd
00000030: eae0 173e b3a9 043e 9f10 b3bc a247 223d
00000040: e8fd 86bc e4d4 55bd c96a b1bb da38 193b
00000050: 60ca 4cbd b1e7 e13c f357 153e f8b1 a23d
00000060: e799 a13c b12a 7c3d ada2 173e 4649 d83c
00000070: 1894 8c3c 73b7 c63d 575e 2dbb 03d7 70bc
00000080: de5a 953d 7ab0 fdbd f8a6 a2bc 9b0a dd3d
00000090: ef3f 233d c02a 543e fc0b f23d 3b10 c9bd
000000a0: 59c8 dd3b fd6e 43bb f104 ac3b 827c f23d
000000b0: 077c 2f3c 1f6d cb3c 5b09 dabd ddd7 173d
000000c0: abce 36bc ef88 18bd e446 bf3d 9011 6a3d
000000d0: f631 a5bd 89a1 15be 8027 73bc 15fd abbd
000000e0: 7c0d 11be 5e97 d63b f737 823c b643 72bd
000000f0: 83b1 a1bd ecf1 3f3b 4d22 edbc 3672 6f3d
00000100: a1dd 373d ba96 633e e719 e2bc 9cf8 a8bc
00000110: 06ea 413d 3460 04bd 676d 00bd 9f0c 2c3d
00000120: 35f6 83bd 5c40 a7bc b5a5 aa3b 04a1 cd3c
00000130: 9b39 6b3d 99bf 7ebd 5910 cabb ceff 043d
00000140: d7e7 38bd df46 663d 1772 f83c 8dda 4f3e
00000150: c4d3 b73d 97a9 44bd 39cf 90bc d02a 893d
00000160: 9795 653c 9b28 b53c 8729 33be 987e 7e3d
00000170: 9809 64be 3cab 17be e0c7 783c 09ee 9dbd
00000180: 368e 0abd e4ff cebb 7294 b13d 6137 a23d
00000190: c93a 373e 8373 b73d 9f4a 16be 2e49 f1bc
000001a0: e139 9c3d db01 8cbd 24eb 8a3c 9d7a 4a3d
000001b0: 85da 1bbd 0f66 4b3c c390 f0bb 8a53 ab3c
000001c0: 67b5 a03d d768 23bd 5d5b c3bd adbf 3e3c
000001d0: 8a2a dc3d 4fa6 0dbe dd46 2fba 8acb aa3a
000001e0: db1f cbbd dc6c 533d 062a f1bc e0ea bdbc
000001f0: fe2f c53d 8b6c 19bd 3da3 87bd 5e6b a4bd
00000200: cd12 a3bd ff53 133e 977b d23d 7bb6 debc
00000210: 867d cdbd df02 50bd bcde c23b 2ccf ee3c
00000220: 2d79 9e3c e94c cf3d ad08 9f3c 9d30 c639
00000230: e09a b93c 0af4 39bc 811d 863d 3b65 913c
00000240: 7660 94bd 3d08 333d 2e3d f6bd 18fd 0d3d
00000250: 8d57 77bc 915f 0bbe b396 a93d 14e6 9f3d
00000260: 8bf5 bcbc 6a5e e93d 7710 423d e999 ecbc
00000270: 6948 a7bd 0e65 963d 387b e83d 77f7 723d
00000280: 840c 833d cf1b 8d3d 6997 9c3d a71b 9e3c
00000290: 2cee 7e3d d18d 4fbd aef4 963d d29c 863d
000002a0: 07bd 073e 3c8c af3d 113e 2c3e 4f9b f3bc
000002b0: bc04 5d3d f661 d93b e8b3 5a3d d6d8 163d
000002c0: f7ce 373c 628d b33d d944 9d3d 251a a93d
000002d0: 6bed 11be b3fe 5ebc 6fa1 ddbd cf55 343c
000002e0: c7c1 50bd ab7c f1bc 7268 893d e48e 8abd
000002f0: bf7b 2cbd 8041 1abb 97fb 47bc 63f9 dfbd
00000300: 0559 a3bd a1af 733c f48a 2abc 3b5f 7dbe
00000310: 4f3c 6fbe fe56 b7be 2995 86be 02e9 00be
00000320: 24b8 2dbe 9132 b7bd fdfd e6bd 0a52 e2bd
00000330: 6141 8bbc 04b7 c2bd dd35 8abd d529 303d
00000340: bc3f 5e3e b477 8a3d 7daf b2bd 9395 b43d
00000350: d56a 323d 4a0b 0ebd 620d 523d c499 833d
00000360: 145f 0dbd 96fb a6bd f5d9 f63b c780 ab3d
00000370: 5d6a d23d 1b97 06bd c0df 04bd f932 cabc
00000380: 269c 873c 01bc 7dbc 49a1 403e 8600 c13c
00000390: cb08 5dbd 34a8 603a cf6e ef3b 00d4 123e
000003a0: 5997 eb3d 452f 183d b6c0 043e 6261 9abd
000003b0: 6d75 babd dbc4 3c3d fb98 ea3d 7d72 05bd
000003c0: c127 3b3d f628 da3c 5600 e1bc a59e 593e
000003d0: bba6 0a3e 7b1a ae3c bba9 9d3d cef2 8bbd
000003e0: 7cbb a2bd 3a12 473b d846 29bd b853 9dbd
000003f0: 5f2a 88bd 0510 d4bb 0e9b ae3d 580f 5b3b

conv4.bias f4 [128]
0.059484106 0.37571064 0.140105 -0.44777098 -0.5078662 0.1510486 0.37112334 0.19769861
-0.32085034 0.15281107 -0.17138243 0.20299669 0.0038347994 -0.06026849 0.016502796 -0.37571827
-0.21344237 0.32051322 0.13716152 0.59412754 0.092106916 0.14226197 -0.24508278 0.20680471
0.040358957 0.22564879 -0.09923063 -0.39769804 -0.06272337 0.5854676 0.20170105 -0.22138552
-0.32895315 0.11866959 0.036875457 0.1117164 -0.153192 0.07673078 -0.01848428 0.18942767
0.05471047 0.21846215 -0.1297556 -0.07321447 0.08053484 -0.033757634 0.06342645 0.0920453
0.42192996 -0.21155055 0.2108223 0.4773882 -0.29502714 -0.048548996 0.18367302 0.13312495
-0.04744809 0.5016534 0.19748956 0.28638628 -0.18075503 -0.05918662 -0.40086848 -0.1679507
0.20286992 0.41347966 -0.02451507 -0.07098757 0.1273742 0.5088387 0.60312593 -0.22980852
0.19586684 0.6305707 -0.02795622 0.22621502 0.09260509 -0.22926667 -0.36686027 0.072492465
-0.14967729 -0.04050928 0.102611214 0.3713292 0.1298477 -0.11447445 -0.06766855 0.06680292
0.047428906 0.41413313 -0.31940374 0.35910413 0.17329597 -0.063724965 0.032171164 -0.32262516
0.26356345 0.43577263 -0.36576214 0.08800868 -0.38266 -0.13104117 -0.41678438 0.21578027
0.14951035 0.023574837 0.19746664 0.14554806 -0.06531884 0.3634638 -0.21416861 0.06297814
-0.061921116 0.031432375 0.021472238 -0.018858964 0.021490732 0.27962443 -0.37584433 0.5296718
0.08421749 0.0149805425 0.0045557623 0.010724347 0.2265797 0.11201814 -0.050426748 0.011077042
00000000: 9ba5 733d 255d c03e af77 0f3e 3d42 e5be
00000010: 8503 02bf 7cac 1a3e e103 be3e 8171 4a3e
00000020: 7f46 a4be 817a 1c3e e07e 2fbe 5dde 4f3e
00000030: 4251 7b3b 18dc 76bd df30 873c 255e c0be
00000040: a390 5abe 4f1a a43e 1274 0c3e be18 183f
00000050: 8da2 bc3d 1fad 113e fbf6 7abe 9dc4 533e
00000060: 6f4f 253d 7a10 673e 6e39 cbbd 149f cbbe
00000070: 1c75 80bd 34e1 153f b88a 4e3e e3b2 62be
00000080: 8c6c a8be 0b09 f33d b80a 173d 91cb e43d
00000090: 5dde 1cbe 0725 9d3d 586c 97bc 54f9 413e
000000a0: 1618 603d 8bb4 5f3e a7de 04be 78f1 95bd
000000b0: 73ef a43d 7245 0abd bae5 813d 3f82 bc3d
000000c0: 3407 d83e b5a0 58be cde1 573e 3a6c f43e
000000d0: cc0d 97be 50db 46bd c814 3c3e e851 083e
000000e0: ee58 42bd 5b6c 003f b43a 4a3e 39a1 923e
000000f0: d917 39be ab6d 72bd a23e cdbe 45fb 2bbe
00000100: 22bd 4f3e 9bb3 d33e d4d3 c8bc ee61 91bd
00000110: 626e 023e 4143 023f 7666 1a3f ed52 6bbe
00000120: 5191 483e 156d 213f 7104 e5bc e9a4 673e
00000130: bda7 bd3d e2c4 6abe 1cd5 bbbe ee76 943d
00000140: 0145 19be 0fed 25bd d425 d23d dc1e be3e
00000150: ccf6 043e 9571 eabd cf95 8abd f8cf 883d
00000160: d044 423d 4209 d43e e388 a3be 7fdc b73e
00000170: 8074 313e 3c82 82bd e9c5 033d 202f a5be
00000180: caf1 863e 971d df3e 2d45 bbbe e53d b43d
00000190: 03ec c3be a82f 06be c364 d5be 81f5 5c3e
000001a0: 3e19 193e 0420 c13c b234 4a3e 8d0a 153e
000001b0: e2c5 85bd ed17 ba3e 044f 5bbe affa 803d
000001c0: ffa0 7dbd 3cbf 003d 8ce6 af3c 1d7e 9abc
000001d0: 550d b03c ef2a 8f3e ab6e c0be 9298 073f
000001e0: 387a ac3d f370 753c 8148 953b 2cb5 2f3c
000001f0: 8204 683e c469 e53d 478c 4ebd 7b7c 353c

conv5_1.weight f4 [1, 128]
-0.02882502 -0.09276762 -0.03995225 -0.04872777 0.3726513 0.04198079 -0.07509335 -0.2496893
-0.12767352 -0.15610963 0.12514274 -0.17332014 -0.01823349 0.45330405 -0.13632801 -0.028607022
0.2989518 -0.115970455 0.06478338 -0.05332695 -0.07164503 -0.104553014 -0.20215099 -0.2987269
-0.024244372 -0.15953965 -0.058191802 -0.04559315 0.32466173 -0.041116845 -0.16625677 0.17030486
-0.12506741 0.2910556 0.34011272 -0.10546841 0.23352525 0.16332278 0.50023454 -0.064519845
0.12265136 0.12510583 0.01636613 -0.13982737 -0.08931858 0.33509904 -0.14172228 0.10324544
0.05919609 0.11955009 -0.13357858 -0.02623557 -0.14556241 0.40255982 -0.012672081 -0.10304515
-0.079229206 -0.16040072 -0.1217024 -0.19298616 0.21406412 0.3238946 -0.07048183 0.5203974
0.10367444 0.020177417 0.3731158 -0.097581014 0.017831752 -0.09792041 -0.20156668 -0.082145825
0.13447031 -0.14355333 0.4442481 -0.026287893 0.055434145 0.28140026 -0.06774767 -0.013792773
-0.15001538 0.2846458 -0.11159582 -0.09099009 0.088730015 0.1855527 0.17073798 -0.08722082
0.35724035 -0.031284165 -0.13317348 -0.18428205 -0.17906724 -0.060804464 0.14707011 0.0103913145
-0.12188418 -0.025993228 0.030954022 0.3657632 -0.13658023 0.2648461 -0.10557266 -0.14974871
0.03376351 0.21699522 -0.13169968 0.04029015 0.36926135 -0.07296616 0.19818684 -0.14823827
0.33743683 -0.0827918 0.6416604 0.09199566 0.062402636 -0.06104838 -0.12311961 -0.030564612
0.19406451 -0.064863175 0.3484892 -0.033075433 -0.16404364 0.14163534 0.44635478 0.3580093
00000000: 7322 ecbc f3fc bdbd f8a4 23bd c596 47bd
00000010: 27cc be3e 0df4 2b3d 8bca 99bd 8dae 7fbe
00000020: d9bc 02be 34db 1fbe 6b25 003e d67a 31be
00000030: 665e 95bc 7817 e83e 9299 0bbe 4659 eabc
00000040: 3610 993e eb81 edbd 26ad 843d 5c6d 5abd
00000050: a1ba 92bd e41f d6bd ab00 4fbe bbf2 98be
00000060: 229c c6bc 5d5e 23be 875a 6ebd e2bf 3abd
00000070: 103a a63e 236a 28bd 373f 2abe 6664 2e3e
00000080: ac11 00be 3d05 953e 4123 ae3e d2ff d7bd
00000090: 3e21 6f3e 163e 273e 5f0f 003f fb22 84bd
000000a0: a330 fb3d be1b 003e 4312 863c e82e 0fbe
000000b0: a9ec b6bd 1a92 ab3e a51f 11be 5872 d33d
000000c0: 9977 723d add6 f43d d3c8 08be faeb d6bc
000000d0: 500e 15be 521c ce3e 8f9e 4fbc 5609 d3bd
000000e0: ec42 a2bd 1640 24be 1c3f f9bd 2a9e 45be
000000f0: a033 5b3e 83d5 a53e c758 90bd c438 053f
00000100: 4453 d43d 1c4b a53c 0909 bf3e 8ed8 c7bd
00000110: e513 923c 7f8a c8bd 7f67 4ebe 123c a8bd
00000120: 96b2 093e a5ff 12be 7d74 e33e b559 d7bc
00000130: ea0e 633d b213 903e 4abf 8abd 15fb 61bc
00000140: a29d 19be 18bd 913e 598c e4bd 0359 babd
00000150: 15b8 b53d 8701 3e3e f0d5 2e3e d4a0 b2bd
00000160: 35e8 b63e d323 00bd a15e 08be 6fb4 3cbe
00000170: 675d 37be 1a0e 79bd 8c99 163e 5540 2a3c
00000180: 6a9e f9bd c0ef d4bc 4a93 fd3c 5045 bb3e
00000190: b0db 0bbe e899 873e 7b36 d8bd ba57 19be
000001a0: 9b4b 0a3d ff33 5e3e 48dc 06be 4907 253d
000001b0: d30f bd3e 486f 95bd 7ef1 4a3e c6cb 17be
000001c0: 85c4 ac3e bf8e a9bd db43 243f 3868 bc3d
000001d0: e899 7f3d de0d 7abd 2226 fcbd a362 fabc
000001e0: d9b8 463e fcd6 84bd 2d6d b23e 1b7a 07bd
000001f0: 0efb 27be db08 113e 9d88 e43e ff4c b73e

conv5_2.weight f4 [4, 128]
0.0018957182 0.063315414 0.03093933 -0.00242639 -0.007963219 -0.00097220903 0.040582687 0.004743579
0.0028248322 0.0019632378 -0.002492192 -0.008057975 0.009134787 0.0070486967 0.00885423 0.014567754
0.0056275087 -0.034251787 -0.029834175 -0.022456685 -0.0049808607 -0.0011740633 -0.057014327 -0.022644263
0.00975228 -0.0009100747 0.0016818319 0.03543228 0.005796699 -0.023450376 -0.023633815 0.009704152
0.007595957 0.010592546 0.01034113 0.017621025 -0.047067907 0.0018912435 0.022468446 -0.020822523
-0.0066773486 -0.012967518 -0.0061647505 -0.005755659 0.023303827 0.0035240345 -0.002532979 0.011502319
0.007277642 -0.009284009 -0.008398627 0.039962474 -0.018357191 -8.23858e-05 -0.028920205 -0.0071049845
0.0026911006 0.0030815548 0.0017718171 -0.06012874 -0.0071777324 -0.014643689 -0.13214925 0.00820614
-0.016380182 0.013124594 -0.0026223839 -0.020846006 -0.014513661 -0.008050647 0.017315114 0.07040363
-0.0013193497 -0.0065924553 -0.0042151576 -0.058509015 1.3000843e-05 -0.017143331 0.004688206 0.018686188
0.012123796 0.010639443 0.007158971 -0.0024646055 -0.03059121 0.0061597484 -0.0077302083 -0.0031875889
-0.015859619 0.02838569 0.030779805 -0.016882222 -0.002964158 0.0068912846 0.0037727768 -0.02673243
0.0022461938 0.051575128 0.04155659 0.024730807 -0.0042062514 0.0021495307 0.020549214 0.0026945984
0.008415746 -0.0010007907 -6.195672e-05 -0.0057020336 0.011402394 0.018562106 0.016008064 -0.004695127
-0.016098145 -0.0043594213 0.004753122 -0.005767054 -0.00793868 -0.008015922 -0.10845002 0.013922904
-0.0038452595 0.042394035 0.00912832 -0.04906429 -0.029979607 0.0021519908 0.01174945 -0.0071035284
-0.019446114 0.010514621 0.035450324 -0.033982698 -0.038060363 0.012148487 0.04825254 0.014875077
0.008946013 -0.006068453 -0.03014031 -0.0004741941 -0.04593977 0.029703923 -0.014719539 0.04006596
0.011223579 -0.049419466 -0.032515872 0.030897979 0.0016488691 -0.021583147 0.013747929 -0.0029978114
0.019216288 0.010089486 0.0037083828 -0.021469891 -0.003270973 -0.03844061 -0.029023953 0.07667825
0.03792562 0.0018324909 0.0059889075 0.000426376 0.039718106 -0.005862972 -0.000747548 -0.018422484
-0.02330938 -0.007927501 0.028644782 -0.0060039917 0.031489566 0.005825482 -0.00864441 0.0053677424
-0.019148411 -0.0051116534 -0.024786465 0.021941071 0.018385742 0.0075675477 -0.09719426 0.011051649
-0.0064053684 0.04635739 0.011089207 -0.005638547 -0.010789798 -0.002036592 0.06813998 0.016721923
0.038830314 -0.0075899237 -0.006526206 -0.0015907228 0.009498133 -0.010338244 0.05113396 -0.012780282
0.009162811 -0.005296835 -0.040717453 -0.033299893 -0.0045887693 -0.0135064395 0.022966312 -0.005658991
0.040546056 -0.0016059292 -0.00092356966 -0.0015650901 -0.013690505 0.0059502306 -0.006326476 0.01300683
-0.06539531 0.057367794 -0.02981141 -0.014051765 -0.0024091746 0.013285278 0.0009482815 0.0331212
-0.00071501685 0.017575871 -0.0009428174 -0.020048888 -0.026103782 0.0072460924 0.033078793 0.004588825
-0.025698887 0.00051282486 -0.02580767 -0.0017031122 -0.006210427 0.030564463 0.0065669985 -0.0010479486
-0.018792616 -0.024049547 -0.00127943 -0.016796947 0.044850543 0.050292183 0.010743902 -0.033139635
0.004549 0.026062148 0.01580927 -0.026989471 -0.023098856 -0.0015961134 -0.014206449 -0.006113287
00000000: bf79 f83a 83ab 813d 7a74 fd3c 1204 1fbb
00000010: 2978 02bc d8db 7eba 083a 263d 0670 9b3b
00000020: d220 393b aaa9 003b 0b54 23bb 9905 04bc
00000030: 13aa 153c c1f8 e63b 5511 113c 97ad 6e3c
00000040: f766 b83b 9a4b 0cbd cd66 f4bc 15f7 b7bc
00000050: 7d36 a3bb 07e3 99ba db87 69bd 7680 b9bc
00000060: 07c8 1f3c 1492 6eba ea70 dc3a 7021 113d
00000070: 3cf2 bd3b 011b c0bc b49b c1bc 2afe 1e3c
00000080: 81e7 f83b 5c8c 2d3c d86d 293c f859 903c
00000090: 47ca 40bd 9ae3 f73a bf0f b83c ff93 aabc
000000a0: a9cd dabb b675 54bc ad01 cabb f899 bcbb
000000b0: abe7 be3c 7df3 663b 5600 26bb 3974 3c3c
000000c0: 4979 ee3b f51b 18bc 659a 09bc b1af 233d
000000d0: d261 96bc 8ac6 acb8 11ea ecbc eed0 e8bb
000000e0: 2d5d 303b e9f3 493b 513c e83a 8e49 76bd
000000f0: 2f33 ebbb 15ec 6fbc 2252 07be 0c73 063c
00000100: bb2f 86bc 8a08 573c 4ddc 2bbb 3ec5 aabc
00000110: b5ca 6dbc dce6 03bc 6dd8 8d3c c72f 903d
00000120: 08ee acba 8605 d8bb 4e1f 8abb 26a7 6fbd
00000130: 321e 5a37 2c70 8cbc 869f 993b c713 993c
00000140: e3a2 463c 0f51 2e3c cd95 ea3b 3885 21bb
00000150: 6b9a fabc b7d7 c93b b04d fdbb dee6 50bb
00000160: 08ec 81bc 1b89 e83c ee25 fc3c 964c 8abc
00000170: 5242 42bb 49d0 e13b b140 773b f8fd dabc
00000180: e134 133b 7140 533d 3e37 2a3d 4398 ca3c
00000190: 98d4 89bb 24df 0c3b d356 a83c dc97 303b
000001a0: 32e2 093c f72c 83ba c3ee 81b8 20d8 babb
000001b0: 1bd1 3a3c 8f0f 983c 5823 833c 94d9 99bb
000001c0: 42e0 83bc 7ad9 8ebb 14c0 9b3b 8ef9 bcbb
000001d0: 3d11 02bc 3755 03bc 0b1b debd e41c 643c
000001e0: c000 7cbb 5ea5 2d3d f38e 153c a3f7 48bd
000001f0: cb97 f5bc 6a08 0d3b c480 403c b7c4 e8bb
00000200: 754d 9fbc 8445 2c3c 5c34 113d 7131 0bbd
00000210: 2fe5 1bbd 730a 473c 75a4 453d 98b6 733c
00000220: 4c92 123c e0d9 c6bb d0e8 f6bc 419d f8b9
00000230: 572b 3cbd a455 f33c 392a 71bc 341c 243d
00000240: 1ae3 373c 116c 4abd 5d2f 05bd c21d fd3c
00000250: de1e d83a 24cf b0bc fe3e 613c ee76 44bb
00000260: 7a6b 9d3c 5f4e 253c 5708 733b a0e1 afbc
00000270: d25d 56bb e773 1dbd a4c3 edbc 7d09 9d3d
00000280: e557 1b3d 3130 f03a 993e c43b 388b df39
00000290: 74af 223d 2c1e c0bb 19f7 43ba c0ea 96bc
000002a0: 50f3 bebc 59e2 01bc 76a8 ea3c 22bd c4bb
000002b0: 34fb 003d afe3 be3b 49a1 0dbc e3e3 af3b
000002c0: 21dd 9cbc a87f a7bb fc0c cbbc c3bd b33c
000002d0: b29d 963c 31f9 f73b c90d c7bd fa11 353c
000002e0: 20e4 d1bb 3fe1 3d3d 81af 353c 8fc3 b8bb
000002f0: b1c7 30bc 5878 05bb f98c 8b3d 6afc 883c
00000300: 890c 1f3d e5b4 f8bb c9d9 d5bb cd7f d0ba
00000310: 0f9e 1b3c bd61 29bc d871 513d 6364 51bc
00000320: 9d1f 163c 1391 adbb 58c7 26bd 7865 08bd
00000330: 635d 96bb 1d4a 5dbc d923 bc3c 0f6f b9bb
00000340: 9f13 263d 0b7e d2ba b61b 72ba b623 cdba
00000350: 244e 60bc 27fa c23b 544e cfbb 991a 553c
00000360: faed 85bd 7efa 6a3d 0f37 f4bc 6039 66bc
00000370: 3ee3 1dbb 7faa 593c 1896 783a 18aa 073d
00000380: f86f 3bba 46fb 8f3c 6827 77ba 913d a4bc
00000390: 99d7 d5bc a170 ed3b a17d 073d db5d 963b
000003a0: 7986 d2bc 186f 063a 9b6a d3bc f63a dfba
000003b0: d680 cbbb 5362 fa3c fa2f d73b 525b 89ba
000003c0: f9f2 99bc 8e03 c5bc 8cb2 a7ba c099 89bc
000003d0: 34b5 373d 2dff 4d3d 3107 303c 6dbd 07bd
000003e0: c70f 953b 4980 d53c 7182 813c 0619 ddbc
000003f0: d039 bdbc ae34 d1ba 2ac2 68bc f851 c8bb

conv5_2.bias f4 [4]
0.03767759 0.049374767 -0.06313771 0.21548103
00000000: d153 1a3d 323d 4a3d 584e 81bd 0fa7 5c3e

conv5_3.weight f4 [10, 128]
-0.0069470583 0.033787526 0.066795446 -0.09914811 -0.108224414 0.20707968 0.046958122 0.009287257
-0.08469671 0.025822623 -0.008329459 -0.018776082 0.018912828 -0.019330285 -0.10155154 -0.063508995
-0.06394907 0.19331318 0.021730088 0.1262058 -0.00029169748 -0.03092231 -0.053728927 0.030582814
0.008028623 -0.004942208 -0.10856194 -0.04394 -0.0030901767 0.05329543 0.0070437067 0.042033814
-0.051311336 0.021268005 0.024046326 -0.021256203 0.04124218 0.026040481 -0.016432453 0.022437494
0.03681924 0.015938073 -0.019363994 -0.038666874 0.0393965 0.015312999 -0.02735985 0.010266637
0.07391862 -0.097558185 -0.009954509 0.04788462 -0.093886815 -0.009089839 -0.007912745 0.02416283
-0.038854882 0.073930316 0.035840143 0.0027000643 -0.051525284 -0.0024074453 -0.06220585 -0.049659025
0.041969486 0.078910656 -0.015321386 0.0015202881 0.020473747 0.0947672 0.1987568 -0.09298647
0.027040366 0.13604413 -0.02205452 -0.013167416 -0.0045115943 -0.06404567 -0.035729855 0.017071074
-0.03391483 -0.111628234 0.014926538 0.10104857 0.021157146 0.008447607 -0.000677677 -0.05339543
-0.016430726 0.06949273 -0.07209175 0.046678707 0.014694469 -0.0031403336 0.012755532 -0.05017648
0.02309898 0.019378077 -0.07191418 -0.016080411 -0.004823703 -0.008285587 -0.08768563 0.017102683
0.031083437 0.011551448 0.18819901 0.016418504 -0.011586282 0.031762455 -0.03273568 -0.025183825
-0.026138991 -0.031678148 0.005111546 -0.005095171 -0.0076853484 0.042657938 -0.0322914 0.04781879
0.012784725 -0.047461517 -0.0013754254 -0.016239373 0.15895158 0.01625801 -0.045764297 -0.037590805
0.009243226 0.05640401 0.013211791 -0.0039731516 -0.00031474954 -0.00015516822 0.022954857 0.004036723
-0.0048457095 0.0073276195 0.008156411 -0.001750102 0.021521837 -0.0046448456 0.0052126767 0.0046450957
0.0023265772 -0.021531366 -0.007709941 -0.012157394 -0.0024088651 0.0023718379 -0.07210351 -0.008873179
0.016515005 0.0010904791 0.0027479492 -0.0594664 0.011463422 -0.023615947 -0.014044752 0.009682803
0.0073429556 0.0065489984 0.006861813 0.017931556 -0.046911567 0.003384274 0.017973261 -0.009952495
0.003920709 -0.014055886 -0.012910284 -0.0047298465 0.01711497 0.0043355282 0.0012480101 0.00704093
0.008827686 -0.0059089763 -0.0042439997 0.035832617 -0.06257986 -0.0049366574 0.003318837 -0.006136896
-0.006339086 0.0069782417 0.005312716 -0.051789317 -8.1474784e-05 -0.015342593 0.032775503 0.0051619876
-0.010840258 0.0042837756 0.0016187362 -0.019300746 -0.01011554 -0.0020181956 0.005061754 0.066348486
-0.0036206723 -0.009058684 0.0052650673 -0.048057888 -0.0034293206 -0.0075433627 -0.006762119 0.006374466
0.0028631876 0.0076578525 0.00794149 -0.0011334127 -0.023527933 0.009663473 -0.0058745625 -0.002036378
-0.014878967 0.0032456904 0.0141916685 -0.008510854 -0.0010479126 -0.0052005234 0.00013784014 -0.04608818
-0.001127513 0.027157333 -0.036325596 0.024999239 -0.110709116 0.0018071852 -0.014929804 0.00032995304
0.018507238 -0.0022690776 0.009021533 -0.007308254 0.0057986127 0.01352967 0.015215447 -0.0014081154
-0.009080502 0.0013992747 0.001371905 0.0011834537 -0.01653413 -0.013938549 -0.11194401 0.014085089
-0.005077073 0.027243765 -0.002286378 -0.018135905 -0.019821772 0.006115009 0.013213546 -0.0038873614
00000000: 26a4 e3bb ca64 0a3d 0dcc 883d 2a0e cbbd
00000010: c3a4 ddbd b20c 543e 2957 403d 9429 183c
00000020: 7875 adbd f789 d33c 4878 08bc 4cd0 99bc
00000030: 13ef 9a3c 8c5a 9ebc 41fa cfbd 0111 82bd
00000040: bbf7 82bd e4f3 453e 4c03 b23c 183c 013e
00000050: f9ee 98b9 c950 fdbc dd12 5cbd cf88 fa3c
00000060: 7c8a 033c 3ff2 a1bb b955 debd 6efa 33bd
00000070: 9084 4abb 4f4c 5a3d e5ce e63b a62b 2c3d
00000080: d62b 52bd 3d3a ae3c cdfc c43c 7d21 aebc
00000090: 8fed 283d d952 d53c 5a9d 86bc d6ce b73c
000000a0: c5cf 163d 9090 823c 3da1 9ebc 2861 1ebd
000000b0: 395e 213d 5fe3 7a3c c421 e0bc 6635 283c
000000c0: a562 973d 96cc c7bd 3d18 23bc aa22 443d
000000d0: bb47 c0bd 8ced 14bc 75a4 01bc 21f1 c53c
000000e0: 4c26 1fbd c768 973d 1dcd 123d 90f3 303b
000000f0: 2d0c 53bd 3bc6 1dbb 90cb 7ebd 4367 4bbd
00000100: 32e8 2b3d e99b a13d 8d06 7bbc 6744 c73a
00000110: 8fb8 a73c 4e15 c23d e786 4b3e b16f bebd
00000120: c283 dd3c 274f 0b3e aeab b4bc 25bc 57bc
00000130: ffd5 93bb 602a 83bd 7859 12bd a3d8 8b3c
00000140: 47ea 0abd 589d e4bd 708e 743c 8df2 ce3d
00000150: c051 ad3c d567 0a3c 22a6 31ba 2bb5 5abd
00000160: bb99 86bc 3452 8e3d d7a4 93bd 2c32 3f3d
00000170: 12c1 703c 0ece 4dbb 94fc 503c da85 4dbd
00000180: 123a bd3c c6be 9e3c be47 93bd 11bb 83bc
00000190: 2710 9ebb 45c0 07bc 8694 b3bd ed1a 8c3c
000001a0: b1a2 fe3c 4942 3d3c 3eb7 403e 1980 863c
000001b0: 64d4 3dbc 5919 023d d915 06bd 4f4e cebc
000001c0: 7021 d6bc f2c0 01bd c17e a73b 64f5 a6bb
000001d0: 60d5 fbbb 17ba 2e3d fd43 04bd a3dd 433d
000001e0: 0677 513c 0267 42bd 9e47 b4ba 6f08 85bc
000001f0: 34c4 223e 852f 853c 5873 3bbd d1f8 19bd
00000200: e670 173c e407 673d 4576 583c 3631 82bb
00000210: f804 a5b9 a7b4 22b9 d30b bc3c 7d46 843b
00000220: c2c8 9ebb 871c f03b 78a2 053c ae63 e5ba
00000230: 904e b03c ca33 98bb 1acf aa3b e335 983b
00000240: 7d79 183b 8c62 b0bc aca3 fcbb ce2f 47bc
00000250: 0dde 1dbb d670 1b3b 01ab 93bd cf60 11bc
00000260: 7a4a 873c 68ee 8e3a f016 343b 0a93 73bd
00000270: 14d1 3b3c 3b76 c1bc f61b 66bc 9fa4 1e3c
00000280: 2d9d f03b fb98 d63b 0fd9 e03b 33e5 923c
00000290: 5826 40bd b2ca 5d3b a93c 933c ca0f 23bc
000002a0: 4a79 803b a94a 66bc a885 53bc d4fc 9abb
000002b0: b234 8c3c 0c11 8e3b 4594 a33a 9ab7 e63b
000002c0: 00a2 103c 16a0 c1bb 4011 8bbb 39c5 123d
000002d0: df29 80bd afc3 a1bb d880 593b 0418 c9bb
000002e0: 1cb8 cfbb bca9 e43b 4b16 ae3b 0921 54bd
000002f0: 71dd aab8 805f 7bbc 9b3f 063d e425 a93b
00000300: 569b 31bc ea5e 8c3b c62b d43a 991c 9ebc
00000310: a6bb 25bc b443 04bb 12dd a53b b7e1 873d
00000320: cd48 6dbb e06a 14bc 9686 ac3b 59d8 44bd
00000330: 74be 60bb 502e f7bb c494 ddbb e5e0 d03b
00000340: 51a4 3b3b b9ee fa3b 061d 023c 058f 94ba
00000350: a7bd c0bc 8b53 1e3c 677f c0bb c174 05bb
00000360: e9c6 73bc a6b5 543b 2c84 683c 1c71 0bbc
00000370: 1d5a 89ba 2769 aabb 2e89 1039 f6c6 3cbd
00000380: 0fc9 93ba 0e79 de3c 26ca 14bd 34cb cc3c
00000390: 76bb e2bd 13df ec3a 239c 74bc 8cfd ac39
000003a0: 7e9c 973c ceb4 14bb 0dcf 133c 147a efbb
000003b0: 4a02 be3b 8dab 5d3c 364a 793c 8390 b8ba
000003c0: 63c6 14bc de67 b73a 7ed1 b33a 1e1e 9b3a
000003d0: 9572 87bc 835e 64bc e742 e5bd 25c5 663c
000003e0: 935d a6bb 512e df3c 0fd7 15bb c091 94bc
000003f0: 4561 a2bc 6a60 c83b a17d 583c 1ac3 7ebb

conv5_3.bias f4 [10]
0.84506387 0.31418636 0.45913535 -0.36637142 0.41010642 0.4226682 0.5603213 0.32722214
-0.19402026 -0.5967101
00000000: 1b56 583f 09dd a03e ca13 eb3e 0995 bbbe
00000010: 78f9 d13e f767 d83e 3771 0f3f a989 a73e
00000020: 3fad 46be fec1 18bf
